{
    "exp_name": "SimpleBNConv_small dataset, without weight",
    "model_architect": "SimpleBNConv(\n  (features): Sequential(\n    (0): Conv2d(3, 8, kernel_size=(3, 3), stride=(1, 1), padding=(1, 1))\n    (1): BatchNorm2d(8, eps=1e-05, momentum=0.1, affine=True, track_running_stats=True)\n    (2): ReLU()\n    (3): MaxPool2d(kernel_size=2, stride=2, padding=0, dilation=1, ceil_mode=False)\n    (4): Conv2d(8, 16, kernel_size=(3, 3), stride=(1, 1), padding=(1, 1))\n    (5): BatchNorm2d(16, eps=1e-05, momentum=0.1, affine=True, track_running_stats=True)\n    (6): ReLU()\n    (7): MaxPool2d(kernel_size=2, stride=2, padding=0, dilation=1, ceil_mode=False)\n    (8): Conv2d(16, 32, kernel_size=(3, 3), stride=(1, 1), padding=(1, 1))\n    (9): BatchNorm2d(32, eps=1e-05, momentum=0.1, affine=True, track_running_stats=True)\n    (10): ReLU()\n    (11): MaxPool2d(kernel_size=2, stride=2, padding=0, dilation=1, ceil_mode=False)\n    (12): Conv2d(32, 64, kernel_size=(3, 3), stride=(1, 1), padding=(1, 1))\n    (13): BatchNorm2d(64, eps=1e-05, momentum=0.1, affine=True, track_running_stats=True)\n    (14): ReLU()\n    (15): MaxPool2d(kernel_size=2, stride=2, padding=0, dilation=1, ceil_mode=False)\n    (16): Conv2d(64, 128, kernel_size=(3, 3), stride=(1, 1), padding=(1, 1))\n    (17): BatchNorm2d(128, eps=1e-05, momentum=0.1, affine=True, track_running_stats=True)\n    (18): ReLU()\n    (19): MaxPool2d(kernel_size=2, stride=2, padding=0, dilation=1, ceil_mode=False)\n  )\n  (seq): Sequential(\n    (0): Flatten(start_dim=1, end_dim=-1)\n    (1): Linear(in_features=32256, out_features=64, bias=True)\n    (2): ReLU()\n    (3): Linear(in_features=64, out_features=32, bias=True)\n    (4): ReLU()\n    (5): Linear(in_features=32, out_features=7, bias=True)\n  )\n)"
}{
    "exp_name": "SimpleBNConv_small dataset, without weight20231010_012345",
    "model_architect": "SimpleBNConv(\n  (features): Sequential(\n    (0): Conv2d(3, 8, kernel_size=(3, 3), stride=(1, 1), padding=(1, 1))\n    (1): BatchNorm2d(8, eps=1e-05, momentum=0.1, affine=True, track_running_stats=True)\n    (2): ReLU()\n    (3): MaxPool2d(kernel_size=2, stride=2, padding=0, dilation=1, ceil_mode=False)\n    (4): Conv2d(8, 16, kernel_size=(3, 3), stride=(1, 1), padding=(1, 1))\n    (5): BatchNorm2d(16, eps=1e-05, momentum=0.1, affine=True, track_running_stats=True)\n    (6): ReLU()\n    (7): MaxPool2d(kernel_size=2, stride=2, padding=0, dilation=1, ceil_mode=False)\n    (8): Conv2d(16, 32, kernel_size=(3, 3), stride=(1, 1), padding=(1, 1))\n    (9): BatchNorm2d(32, eps=1e-05, momentum=0.1, affine=True, track_running_stats=True)\n    (10): ReLU()\n    (11): MaxPool2d(kernel_size=2, stride=2, padding=0, dilation=1, ceil_mode=False)\n    (12): Conv2d(32, 64, kernel_size=(3, 3), stride=(1, 1), padding=(1, 1))\n    (13): BatchNorm2d(64, eps=1e-05, momentum=0.1, affine=True, track_running_stats=True)\n    (14): ReLU()\n    (15): MaxPool2d(kernel_size=2, stride=2, padding=0, dilation=1, ceil_mode=False)\n    (16): Conv2d(64, 128, kernel_size=(3, 3), stride=(1, 1), padding=(1, 1))\n    (17): BatchNorm2d(128, eps=1e-05, momentum=0.1, affine=True, track_running_stats=True)\n    (18): ReLU()\n    (19): MaxPool2d(kernel_size=2, stride=2, padding=0, dilation=1, ceil_mode=False)\n  )\n  (seq): Sequential(\n    (0): Flatten(start_dim=1, end_dim=-1)\n    (1): Linear(in_features=32256, out_features=64, bias=True)\n    (2): ReLU()\n    (3): Linear(in_features=64, out_features=32, bias=True)\n    (4): ReLU()\n    (5): Linear(in_features=32, out_features=7, bias=True)\n  )\n)"
}{
    "exp_name": "SimpleBNConv_small dataset, with weight  20231010_012625",
    "model_architect": "SimpleBNConv(\n  (features): Sequential(\n    (0): Conv2d(3, 8, kernel_size=(3, 3), stride=(1, 1), padding=(1, 1))\n    (1): BatchNorm2d(8, eps=1e-05, momentum=0.1, affine=True, track_running_stats=True)\n    (2): ReLU()\n    (3): MaxPool2d(kernel_size=2, stride=2, padding=0, dilation=1, ceil_mode=False)\n    (4): Conv2d(8, 16, kernel_size=(3, 3), stride=(1, 1), padding=(1, 1))\n    (5): BatchNorm2d(16, eps=1e-05, momentum=0.1, affine=True, track_running_stats=True)\n    (6): ReLU()\n    (7): MaxPool2d(kernel_size=2, stride=2, padding=0, dilation=1, ceil_mode=False)\n    (8): Conv2d(16, 32, kernel_size=(3, 3), stride=(1, 1), padding=(1, 1))\n    (9): BatchNorm2d(32, eps=1e-05, momentum=0.1, affine=True, track_running_stats=True)\n    (10): ReLU()\n    (11): MaxPool2d(kernel_size=2, stride=2, padding=0, dilation=1, ceil_mode=False)\n    (12): Conv2d(32, 64, kernel_size=(3, 3), stride=(1, 1), padding=(1, 1))\n    (13): BatchNorm2d(64, eps=1e-05, momentum=0.1, affine=True, track_running_stats=True)\n    (14): ReLU()\n    (15): MaxPool2d(kernel_size=2, stride=2, padding=0, dilation=1, ceil_mode=False)\n    (16): Conv2d(64, 128, kernel_size=(3, 3), stride=(1, 1), padding=(1, 1))\n    (17): BatchNorm2d(128, eps=1e-05, momentum=0.1, affine=True, track_running_stats=True)\n    (18): ReLU()\n    (19): MaxPool2d(kernel_size=2, stride=2, padding=0, dilation=1, ceil_mode=False)\n  )\n  (seq): Sequential(\n    (0): Flatten(start_dim=1, end_dim=-1)\n    (1): Linear(in_features=32256, out_features=64, bias=True)\n    (2): ReLU()\n    (3): Linear(in_features=64, out_features=32, bias=True)\n    (4): ReLU()\n    (5): Linear(in_features=32, out_features=7, bias=True)\n  )\n)"
}{
    "exp_name": "SimpleBNConv_small dataset, with weight  20231010_012637",
    "model_architect": "SimpleBNConv(\n  (features): Sequential(\n    (0): Conv2d(3, 8, kernel_size=(3, 3), stride=(1, 1), padding=(1, 1))\n    (1): BatchNorm2d(8, eps=1e-05, momentum=0.1, affine=True, track_running_stats=True)\n    (2): ReLU()\n    (3): MaxPool2d(kernel_size=2, stride=2, padding=0, dilation=1, ceil_mode=False)\n    (4): Conv2d(8, 16, kernel_size=(3, 3), stride=(1, 1), padding=(1, 1))\n    (5): BatchNorm2d(16, eps=1e-05, momentum=0.1, affine=True, track_running_stats=True)\n    (6): ReLU()\n    (7): MaxPool2d(kernel_size=2, stride=2, padding=0, dilation=1, ceil_mode=False)\n    (8): Conv2d(16, 32, kernel_size=(3, 3), stride=(1, 1), padding=(1, 1))\n    (9): BatchNorm2d(32, eps=1e-05, momentum=0.1, affine=True, track_running_stats=True)\n    (10): ReLU()\n    (11): MaxPool2d(kernel_size=2, stride=2, padding=0, dilation=1, ceil_mode=False)\n    (12): Conv2d(32, 64, kernel_size=(3, 3), stride=(1, 1), padding=(1, 1))\n    (13): BatchNorm2d(64, eps=1e-05, momentum=0.1, affine=True, track_running_stats=True)\n    (14): ReLU()\n    (15): MaxPool2d(kernel_size=2, stride=2, padding=0, dilation=1, ceil_mode=False)\n    (16): Conv2d(64, 128, kernel_size=(3, 3), stride=(1, 1), padding=(1, 1))\n    (17): BatchNorm2d(128, eps=1e-05, momentum=0.1, affine=True, track_running_stats=True)\n    (18): ReLU()\n    (19): MaxPool2d(kernel_size=2, stride=2, padding=0, dilation=1, ceil_mode=False)\n  )\n  (seq): Sequential(\n    (0): Flatten(start_dim=1, end_dim=-1)\n    (1): Linear(in_features=32256, out_features=64, bias=True)\n    (2): ReLU()\n    (3): Linear(in_features=64, out_features=32, bias=True)\n    (4): ReLU()\n    (5): Linear(in_features=32, out_features=7, bias=True)\n  )\n)"
}{
    "exp_name": "SimpleBNConv_full dataset, with weight  20231010_012837",
    "model_architect": "SimpleBNConv(\n  (features): Sequential(\n    (0): Conv2d(3, 8, kernel_size=(3, 3), stride=(1, 1), padding=(1, 1))\n    (1): BatchNorm2d(8, eps=1e-05, momentum=0.1, affine=True, track_running_stats=True)\n    (2): ReLU()\n    (3): MaxPool2d(kernel_size=2, stride=2, padding=0, dilation=1, ceil_mode=False)\n    (4): Conv2d(8, 16, kernel_size=(3, 3), stride=(1, 1), padding=(1, 1))\n    (5): BatchNorm2d(16, eps=1e-05, momentum=0.1, affine=True, track_running_stats=True)\n    (6): ReLU()\n    (7): MaxPool2d(kernel_size=2, stride=2, padding=0, dilation=1, ceil_mode=False)\n    (8): Conv2d(16, 32, kernel_size=(3, 3), stride=(1, 1), padding=(1, 1))\n    (9): BatchNorm2d(32, eps=1e-05, momentum=0.1, affine=True, track_running_stats=True)\n    (10): ReLU()\n    (11): MaxPool2d(kernel_size=2, stride=2, padding=0, dilation=1, ceil_mode=False)\n    (12): Conv2d(32, 64, kernel_size=(3, 3), stride=(1, 1), padding=(1, 1))\n    (13): BatchNorm2d(64, eps=1e-05, momentum=0.1, affine=True, track_running_stats=True)\n    (14): ReLU()\n    (15): MaxPool2d(kernel_size=2, stride=2, padding=0, dilation=1, ceil_mode=False)\n    (16): Conv2d(64, 128, kernel_size=(3, 3), stride=(1, 1), padding=(1, 1))\n    (17): BatchNorm2d(128, eps=1e-05, momentum=0.1, affine=True, track_running_stats=True)\n    (18): ReLU()\n    (19): MaxPool2d(kernel_size=2, stride=2, padding=0, dilation=1, ceil_mode=False)\n  )\n  (seq): Sequential(\n    (0): Flatten(start_dim=1, end_dim=-1)\n    (1): Linear(in_features=32256, out_features=64, bias=True)\n    (2): ReLU()\n    (3): Linear(in_features=64, out_features=32, bias=True)\n    (4): ReLU()\n    (5): Linear(in_features=32, out_features=7, bias=True)\n  )\n)"
}{
    "exp_name": "SimpleBNConv_full dataset, with weight  20231010_013828",
    "model_architect": "SimpleBNConv(\n  (features): Sequential(\n    (0): Conv2d(3, 8, kernel_size=(3, 3), stride=(1, 1), padding=(1, 1))\n    (1): BatchNorm2d(8, eps=1e-05, momentum=0.1, affine=True, track_running_stats=True)\n    (2): ReLU()\n    (3): MaxPool2d(kernel_size=2, stride=2, padding=0, dilation=1, ceil_mode=False)\n    (4): Conv2d(8, 16, kernel_size=(3, 3), stride=(1, 1), padding=(1, 1))\n    (5): BatchNorm2d(16, eps=1e-05, momentum=0.1, affine=True, track_running_stats=True)\n    (6): ReLU()\n    (7): MaxPool2d(kernel_size=2, stride=2, padding=0, dilation=1, ceil_mode=False)\n    (8): Conv2d(16, 32, kernel_size=(3, 3), stride=(1, 1), padding=(1, 1))\n    (9): BatchNorm2d(32, eps=1e-05, momentum=0.1, affine=True, track_running_stats=True)\n    (10): ReLU()\n    (11): MaxPool2d(kernel_size=2, stride=2, padding=0, dilation=1, ceil_mode=False)\n    (12): Conv2d(32, 64, kernel_size=(3, 3), stride=(1, 1), padding=(1, 1))\n    (13): BatchNorm2d(64, eps=1e-05, momentum=0.1, affine=True, track_running_stats=True)\n    (14): ReLU()\n    (15): MaxPool2d(kernel_size=2, stride=2, padding=0, dilation=1, ceil_mode=False)\n    (16): Conv2d(64, 128, kernel_size=(3, 3), stride=(1, 1), padding=(1, 1))\n    (17): BatchNorm2d(128, eps=1e-05, momentum=0.1, affine=True, track_running_stats=True)\n    (18): ReLU()\n    (19): MaxPool2d(kernel_size=2, stride=2, padding=0, dilation=1, ceil_mode=False)\n  )\n  (seq): Sequential(\n    (0): Flatten(start_dim=1, end_dim=-1)\n    (1): Linear(in_features=32256, out_features=64, bias=True)\n    (2): ReLU()\n    (3): Linear(in_features=64, out_features=32, bias=True)\n    (4): ReLU()\n    (5): Linear(in_features=32, out_features=7, bias=True)\n  )\n)"
}{
    "exp_name": "SimpleBNConv_full dataset, with weight  20231010_014129",
    "model_architect": "SimpleBNConv(\n  (features): Sequential(\n    (0): Conv2d(3, 8, kernel_size=(3, 3), stride=(1, 1), padding=(1, 1))\n    (1): BatchNorm2d(8, eps=1e-05, momentum=0.1, affine=True, track_running_stats=True)\n    (2): ReLU()\n    (3): MaxPool2d(kernel_size=2, stride=2, padding=0, dilation=1, ceil_mode=False)\n    (4): Conv2d(8, 16, kernel_size=(3, 3), stride=(1, 1), padding=(1, 1))\n    (5): BatchNorm2d(16, eps=1e-05, momentum=0.1, affine=True, track_running_stats=True)\n    (6): ReLU()\n    (7): MaxPool2d(kernel_size=2, stride=2, padding=0, dilation=1, ceil_mode=False)\n    (8): Conv2d(16, 32, kernel_size=(3, 3), stride=(1, 1), padding=(1, 1))\n    (9): BatchNorm2d(32, eps=1e-05, momentum=0.1, affine=True, track_running_stats=True)\n    (10): ReLU()\n    (11): MaxPool2d(kernel_size=2, stride=2, padding=0, dilation=1, ceil_mode=False)\n    (12): Conv2d(32, 64, kernel_size=(3, 3), stride=(1, 1), padding=(1, 1))\n    (13): BatchNorm2d(64, eps=1e-05, momentum=0.1, affine=True, track_running_stats=True)\n    (14): ReLU()\n    (15): MaxPool2d(kernel_size=2, stride=2, padding=0, dilation=1, ceil_mode=False)\n    (16): Conv2d(64, 128, kernel_size=(3, 3), stride=(1, 1), padding=(1, 1))\n    (17): BatchNorm2d(128, eps=1e-05, momentum=0.1, affine=True, track_running_stats=True)\n    (18): ReLU()\n    (19): MaxPool2d(kernel_size=2, stride=2, padding=0, dilation=1, ceil_mode=False)\n  )\n  (seq): Sequential(\n    (0): Flatten(start_dim=1, end_dim=-1)\n    (1): Linear(in_features=32256, out_features=64, bias=True)\n    (2): ReLU()\n    (3): Linear(in_features=64, out_features=32, bias=True)\n    (4): ReLU()\n    (5): Linear(in_features=32, out_features=7, bias=True)\n  )\n)"
}{
    "exp_name": "SimpleBNConv_full dataset, with weight  20231010_014922",
    "model_architect": "SimpleBNConv(\n  (features): Sequential(\n    (0): Conv2d(3, 8, kernel_size=(3, 3), stride=(1, 1), padding=(1, 1))\n    (1): BatchNorm2d(8, eps=1e-05, momentum=0.1, affine=True, track_running_stats=True)\n    (2): ReLU()\n    (3): MaxPool2d(kernel_size=2, stride=2, padding=0, dilation=1, ceil_mode=False)\n    (4): Conv2d(8, 16, kernel_size=(3, 3), stride=(1, 1), padding=(1, 1))\n    (5): BatchNorm2d(16, eps=1e-05, momentum=0.1, affine=True, track_running_stats=True)\n    (6): ReLU()\n    (7): MaxPool2d(kernel_size=2, stride=2, padding=0, dilation=1, ceil_mode=False)\n    (8): Conv2d(16, 32, kernel_size=(3, 3), stride=(1, 1), padding=(1, 1))\n    (9): BatchNorm2d(32, eps=1e-05, momentum=0.1, affine=True, track_running_stats=True)\n    (10): ReLU()\n    (11): MaxPool2d(kernel_size=2, stride=2, padding=0, dilation=1, ceil_mode=False)\n    (12): Conv2d(32, 64, kernel_size=(3, 3), stride=(1, 1), padding=(1, 1))\n    (13): BatchNorm2d(64, eps=1e-05, momentum=0.1, affine=True, track_running_stats=True)\n    (14): ReLU()\n    (15): MaxPool2d(kernel_size=2, stride=2, padding=0, dilation=1, ceil_mode=False)\n    (16): Conv2d(64, 128, kernel_size=(3, 3), stride=(1, 1), padding=(1, 1))\n    (17): BatchNorm2d(128, eps=1e-05, momentum=0.1, affine=True, track_running_stats=True)\n    (18): ReLU()\n    (19): MaxPool2d(kernel_size=2, stride=2, padding=0, dilation=1, ceil_mode=False)\n  )\n  (seq): Sequential(\n    (0): Flatten(start_dim=1, end_dim=-1)\n    (1): Linear(in_features=32256, out_features=64, bias=True)\n    (2): ReLU()\n    (3): Linear(in_features=64, out_features=32, bias=True)\n    (4): ReLU()\n    (5): Linear(in_features=32, out_features=7, bias=True)\n  )\n)"
}{
    "exp_name": "SimpleBNConv_full dataset, with weight  20231010_014947",
    "model_architect": "SimpleBNConv(\n  (features): Sequential(\n    (0): Conv2d(3, 8, kernel_size=(3, 3), stride=(1, 1), padding=(1, 1))\n    (1): BatchNorm2d(8, eps=1e-05, momentum=0.1, affine=True, track_running_stats=True)\n    (2): ReLU()\n    (3): MaxPool2d(kernel_size=2, stride=2, padding=0, dilation=1, ceil_mode=False)\n    (4): Conv2d(8, 16, kernel_size=(3, 3), stride=(1, 1), padding=(1, 1))\n    (5): BatchNorm2d(16, eps=1e-05, momentum=0.1, affine=True, track_running_stats=True)\n    (6): ReLU()\n    (7): MaxPool2d(kernel_size=2, stride=2, padding=0, dilation=1, ceil_mode=False)\n    (8): Conv2d(16, 32, kernel_size=(3, 3), stride=(1, 1), padding=(1, 1))\n    (9): BatchNorm2d(32, eps=1e-05, momentum=0.1, affine=True, track_running_stats=True)\n    (10): ReLU()\n    (11): MaxPool2d(kernel_size=2, stride=2, padding=0, dilation=1, ceil_mode=False)\n    (12): Conv2d(32, 64, kernel_size=(3, 3), stride=(1, 1), padding=(1, 1))\n    (13): BatchNorm2d(64, eps=1e-05, momentum=0.1, affine=True, track_running_stats=True)\n    (14): ReLU()\n    (15): MaxPool2d(kernel_size=2, stride=2, padding=0, dilation=1, ceil_mode=False)\n    (16): Conv2d(64, 128, kernel_size=(3, 3), stride=(1, 1), padding=(1, 1))\n    (17): BatchNorm2d(128, eps=1e-05, momentum=0.1, affine=True, track_running_stats=True)\n    (18): ReLU()\n    (19): MaxPool2d(kernel_size=2, stride=2, padding=0, dilation=1, ceil_mode=False)\n  )\n  (seq): Sequential(\n    (0): Flatten(start_dim=1, end_dim=-1)\n    (1): Linear(in_features=32256, out_features=64, bias=True)\n    (2): ReLU()\n    (3): Linear(in_features=64, out_features=32, bias=True)\n    (4): ReLU()\n    (5): Linear(in_features=32, out_features=7, bias=True)\n  )\n)"
}{
    "exp_name": "SimpleBNConv_full dataset, with normalised weight  20231010_020234",
    "model_architect": "SimpleBNConv(\n  (features): Sequential(\n    (0): Conv2d(3, 8, kernel_size=(3, 3), stride=(1, 1), padding=(1, 1))\n    (1): BatchNorm2d(8, eps=1e-05, momentum=0.1, affine=True, track_running_stats=True)\n    (2): ReLU()\n    (3): MaxPool2d(kernel_size=2, stride=2, padding=0, dilation=1, ceil_mode=False)\n    (4): Conv2d(8, 16, kernel_size=(3, 3), stride=(1, 1), padding=(1, 1))\n    (5): BatchNorm2d(16, eps=1e-05, momentum=0.1, affine=True, track_running_stats=True)\n    (6): ReLU()\n    (7): MaxPool2d(kernel_size=2, stride=2, padding=0, dilation=1, ceil_mode=False)\n    (8): Conv2d(16, 32, kernel_size=(3, 3), stride=(1, 1), padding=(1, 1))\n    (9): BatchNorm2d(32, eps=1e-05, momentum=0.1, affine=True, track_running_stats=True)\n    (10): ReLU()\n    (11): MaxPool2d(kernel_size=2, stride=2, padding=0, dilation=1, ceil_mode=False)\n    (12): Conv2d(32, 64, kernel_size=(3, 3), stride=(1, 1), padding=(1, 1))\n    (13): BatchNorm2d(64, eps=1e-05, momentum=0.1, affine=True, track_running_stats=True)\n    (14): ReLU()\n    (15): MaxPool2d(kernel_size=2, stride=2, padding=0, dilation=1, ceil_mode=False)\n    (16): Conv2d(64, 128, kernel_size=(3, 3), stride=(1, 1), padding=(1, 1))\n    (17): BatchNorm2d(128, eps=1e-05, momentum=0.1, affine=True, track_running_stats=True)\n    (18): ReLU()\n    (19): MaxPool2d(kernel_size=2, stride=2, padding=0, dilation=1, ceil_mode=False)\n  )\n  (seq): Sequential(\n    (0): Flatten(start_dim=1, end_dim=-1)\n    (1): Linear(in_features=32256, out_features=64, bias=True)\n    (2): ReLU()\n    (3): Linear(in_features=64, out_features=32, bias=True)\n    (4): ReLU()\n    (5): Linear(in_features=32, out_features=7, bias=True)\n  )\n)"
}{
    "exp_name": "SimpleBNConv_full dataset, with normalised weight  20231010_113457",
    "model_architect": "SimpleBNConv(\n  (features): Sequential(\n    (0): Conv2d(3, 8, kernel_size=(3, 3), stride=(1, 1), padding=(1, 1))\n    (1): BatchNorm2d(8, eps=1e-05, momentum=0.1, affine=True, track_running_stats=True)\n    (2): ReLU()\n    (3): MaxPool2d(kernel_size=2, stride=2, padding=0, dilation=1, ceil_mode=False)\n    (4): Conv2d(8, 16, kernel_size=(3, 3), stride=(1, 1), padding=(1, 1))\n    (5): BatchNorm2d(16, eps=1e-05, momentum=0.1, affine=True, track_running_stats=True)\n    (6): ReLU()\n    (7): MaxPool2d(kernel_size=2, stride=2, padding=0, dilation=1, ceil_mode=False)\n    (8): Conv2d(16, 32, kernel_size=(3, 3), stride=(1, 1), padding=(1, 1))\n    (9): BatchNorm2d(32, eps=1e-05, momentum=0.1, affine=True, track_running_stats=True)\n    (10): ReLU()\n    (11): MaxPool2d(kernel_size=2, stride=2, padding=0, dilation=1, ceil_mode=False)\n    (12): Conv2d(32, 64, kernel_size=(3, 3), stride=(1, 1), padding=(1, 1))\n    (13): BatchNorm2d(64, eps=1e-05, momentum=0.1, affine=True, track_running_stats=True)\n    (14): ReLU()\n    (15): MaxPool2d(kernel_size=2, stride=2, padding=0, dilation=1, ceil_mode=False)\n    (16): Conv2d(64, 128, kernel_size=(3, 3), stride=(1, 1), padding=(1, 1))\n    (17): BatchNorm2d(128, eps=1e-05, momentum=0.1, affine=True, track_running_stats=True)\n    (18): ReLU()\n    (19): MaxPool2d(kernel_size=2, stride=2, padding=0, dilation=1, ceil_mode=False)\n  )\n  (seq): Sequential(\n    (0): Flatten(start_dim=1, end_dim=-1)\n    (1): Linear(in_features=32256, out_features=64, bias=True)\n    (2): ReLU()\n    (3): Linear(in_features=64, out_features=32, bias=True)\n    (4): ReLU()\n    (5): Linear(in_features=32, out_features=7, bias=True)\n  )\n)"
}{
    "exp_name": "SimpleBNConv_full dataset, with normalised weight  20231010_115124",
    "model_architect": "SimpleBNConv(\n  (features): Sequential(\n    (0): Conv2d(3, 8, kernel_size=(3, 3), stride=(1, 1), padding=(1, 1))\n    (1): BatchNorm2d(8, eps=1e-05, momentum=0.1, affine=True, track_running_stats=True)\n    (2): ReLU()\n    (3): MaxPool2d(kernel_size=2, stride=2, padding=0, dilation=1, ceil_mode=False)\n    (4): Conv2d(8, 16, kernel_size=(3, 3), stride=(1, 1), padding=(1, 1))\n    (5): BatchNorm2d(16, eps=1e-05, momentum=0.1, affine=True, track_running_stats=True)\n    (6): ReLU()\n    (7): MaxPool2d(kernel_size=2, stride=2, padding=0, dilation=1, ceil_mode=False)\n    (8): Conv2d(16, 32, kernel_size=(3, 3), stride=(1, 1), padding=(1, 1))\n    (9): BatchNorm2d(32, eps=1e-05, momentum=0.1, affine=True, track_running_stats=True)\n    (10): ReLU()\n    (11): MaxPool2d(kernel_size=2, stride=2, padding=0, dilation=1, ceil_mode=False)\n    (12): Conv2d(32, 64, kernel_size=(3, 3), stride=(1, 1), padding=(1, 1))\n    (13): BatchNorm2d(64, eps=1e-05, momentum=0.1, affine=True, track_running_stats=True)\n    (14): ReLU()\n    (15): MaxPool2d(kernel_size=2, stride=2, padding=0, dilation=1, ceil_mode=False)\n    (16): Conv2d(64, 128, kernel_size=(3, 3), stride=(1, 1), padding=(1, 1))\n    (17): BatchNorm2d(128, eps=1e-05, momentum=0.1, affine=True, track_running_stats=True)\n    (18): ReLU()\n    (19): MaxPool2d(kernel_size=2, stride=2, padding=0, dilation=1, ceil_mode=False)\n  )\n  (seq): Sequential(\n    (0): Flatten(start_dim=1, end_dim=-1)\n    (1): Linear(in_features=32256, out_features=64, bias=True)\n    (2): ReLU()\n    (3): Linear(in_features=64, out_features=32, bias=True)\n    (4): ReLU()\n    (5): Linear(in_features=32, out_features=7, bias=True)\n  )\n)"
}{
    "exp_name": "SimpleBNConv_small dataset, without weight  20231010_115454",
    "model_architect": "SimpleBNConv(\n  (features): Sequential(\n    (0): Conv2d(3, 8, kernel_size=(3, 3), stride=(1, 1), padding=(1, 1))\n    (1): BatchNorm2d(8, eps=1e-05, momentum=0.1, affine=True, track_running_stats=True)\n    (2): ReLU()\n    (3): MaxPool2d(kernel_size=2, stride=2, padding=0, dilation=1, ceil_mode=False)\n    (4): Conv2d(8, 16, kernel_size=(3, 3), stride=(1, 1), padding=(1, 1))\n    (5): BatchNorm2d(16, eps=1e-05, momentum=0.1, affine=True, track_running_stats=True)\n    (6): ReLU()\n    (7): MaxPool2d(kernel_size=2, stride=2, padding=0, dilation=1, ceil_mode=False)\n    (8): Conv2d(16, 32, kernel_size=(3, 3), stride=(1, 1), padding=(1, 1))\n    (9): BatchNorm2d(32, eps=1e-05, momentum=0.1, affine=True, track_running_stats=True)\n    (10): ReLU()\n    (11): MaxPool2d(kernel_size=2, stride=2, padding=0, dilation=1, ceil_mode=False)\n    (12): Conv2d(32, 64, kernel_size=(3, 3), stride=(1, 1), padding=(1, 1))\n    (13): BatchNorm2d(64, eps=1e-05, momentum=0.1, affine=True, track_running_stats=True)\n    (14): ReLU()\n    (15): MaxPool2d(kernel_size=2, stride=2, padding=0, dilation=1, ceil_mode=False)\n    (16): Conv2d(64, 128, kernel_size=(3, 3), stride=(1, 1), padding=(1, 1))\n    (17): BatchNorm2d(128, eps=1e-05, momentum=0.1, affine=True, track_running_stats=True)\n    (18): ReLU()\n    (19): MaxPool2d(kernel_size=2, stride=2, padding=0, dilation=1, ceil_mode=False)\n  )\n  (seq): Sequential(\n    (0): Flatten(start_dim=1, end_dim=-1)\n    (1): Linear(in_features=32256, out_features=64, bias=True)\n    (2): ReLU()\n    (3): Linear(in_features=64, out_features=32, bias=True)\n    (4): ReLU()\n    (5): Linear(in_features=32, out_features=7, bias=True)\n  )\n)"
}{
    "exp_name": "SimpleBNConv_small dataset, with normalised weight  20231010_115855",
    "model_architect": "SimpleBNConv(\n  (features): Sequential(\n    (0): Conv2d(3, 8, kernel_size=(3, 3), stride=(1, 1), padding=(1, 1))\n    (1): BatchNorm2d(8, eps=1e-05, momentum=0.1, affine=True, track_running_stats=True)\n    (2): ReLU()\n    (3): MaxPool2d(kernel_size=2, stride=2, padding=0, dilation=1, ceil_mode=False)\n    (4): Conv2d(8, 16, kernel_size=(3, 3), stride=(1, 1), padding=(1, 1))\n    (5): BatchNorm2d(16, eps=1e-05, momentum=0.1, affine=True, track_running_stats=True)\n    (6): ReLU()\n    (7): MaxPool2d(kernel_size=2, stride=2, padding=0, dilation=1, ceil_mode=False)\n    (8): Conv2d(16, 32, kernel_size=(3, 3), stride=(1, 1), padding=(1, 1))\n    (9): BatchNorm2d(32, eps=1e-05, momentum=0.1, affine=True, track_running_stats=True)\n    (10): ReLU()\n    (11): MaxPool2d(kernel_size=2, stride=2, padding=0, dilation=1, ceil_mode=False)\n    (12): Conv2d(32, 64, kernel_size=(3, 3), stride=(1, 1), padding=(1, 1))\n    (13): BatchNorm2d(64, eps=1e-05, momentum=0.1, affine=True, track_running_stats=True)\n    (14): ReLU()\n    (15): MaxPool2d(kernel_size=2, stride=2, padding=0, dilation=1, ceil_mode=False)\n    (16): Conv2d(64, 128, kernel_size=(3, 3), stride=(1, 1), padding=(1, 1))\n    (17): BatchNorm2d(128, eps=1e-05, momentum=0.1, affine=True, track_running_stats=True)\n    (18): ReLU()\n    (19): MaxPool2d(kernel_size=2, stride=2, padding=0, dilation=1, ceil_mode=False)\n  )\n  (seq): Sequential(\n    (0): Flatten(start_dim=1, end_dim=-1)\n    (1): Linear(in_features=32256, out_features=64, bias=True)\n    (2): ReLU()\n    (3): Linear(in_features=64, out_features=32, bias=True)\n    (4): ReLU()\n    (5): Linear(in_features=32, out_features=7, bias=True)\n  )\n)"
}{
    "exp_name": "SimpleBNConv_full dataset, without weight  20231010_120032",
    "model_architect": "SimpleBNConv(\n  (features): Sequential(\n    (0): Conv2d(3, 8, kernel_size=(3, 3), stride=(1, 1), padding=(1, 1))\n    (1): BatchNorm2d(8, eps=1e-05, momentum=0.1, affine=True, track_running_stats=True)\n    (2): ReLU()\n    (3): MaxPool2d(kernel_size=2, stride=2, padding=0, dilation=1, ceil_mode=False)\n    (4): Conv2d(8, 16, kernel_size=(3, 3), stride=(1, 1), padding=(1, 1))\n    (5): BatchNorm2d(16, eps=1e-05, momentum=0.1, affine=True, track_running_stats=True)\n    (6): ReLU()\n    (7): MaxPool2d(kernel_size=2, stride=2, padding=0, dilation=1, ceil_mode=False)\n    (8): Conv2d(16, 32, kernel_size=(3, 3), stride=(1, 1), padding=(1, 1))\n    (9): BatchNorm2d(32, eps=1e-05, momentum=0.1, affine=True, track_running_stats=True)\n    (10): ReLU()\n    (11): MaxPool2d(kernel_size=2, stride=2, padding=0, dilation=1, ceil_mode=False)\n    (12): Conv2d(32, 64, kernel_size=(3, 3), stride=(1, 1), padding=(1, 1))\n    (13): BatchNorm2d(64, eps=1e-05, momentum=0.1, affine=True, track_running_stats=True)\n    (14): ReLU()\n    (15): MaxPool2d(kernel_size=2, stride=2, padding=0, dilation=1, ceil_mode=False)\n    (16): Conv2d(64, 128, kernel_size=(3, 3), stride=(1, 1), padding=(1, 1))\n    (17): BatchNorm2d(128, eps=1e-05, momentum=0.1, affine=True, track_running_stats=True)\n    (18): ReLU()\n    (19): MaxPool2d(kernel_size=2, stride=2, padding=0, dilation=1, ceil_mode=False)\n  )\n  (seq): Sequential(\n    (0): Flatten(start_dim=1, end_dim=-1)\n    (1): Linear(in_features=32256, out_features=64, bias=True)\n    (2): ReLU()\n    (3): Linear(in_features=64, out_features=32, bias=True)\n    (4): ReLU()\n    (5): Linear(in_features=32, out_features=7, bias=True)\n  )\n)"
}{
    "exp_name": "SimpleBNConv_full dataset, with weight  20231010_122612",
    "model_architect": "SimpleBNConv(\n  (features): Sequential(\n    (0): Conv2d(3, 8, kernel_size=(3, 3), stride=(1, 1), padding=(1, 1))\n    (1): BatchNorm2d(8, eps=1e-05, momentum=0.1, affine=True, track_running_stats=True)\n    (2): ReLU()\n    (3): MaxPool2d(kernel_size=2, stride=2, padding=0, dilation=1, ceil_mode=False)\n    (4): Conv2d(8, 16, kernel_size=(3, 3), stride=(1, 1), padding=(1, 1))\n    (5): BatchNorm2d(16, eps=1e-05, momentum=0.1, affine=True, track_running_stats=True)\n    (6): ReLU()\n    (7): MaxPool2d(kernel_size=2, stride=2, padding=0, dilation=1, ceil_mode=False)\n    (8): Conv2d(16, 32, kernel_size=(3, 3), stride=(1, 1), padding=(1, 1))\n    (9): BatchNorm2d(32, eps=1e-05, momentum=0.1, affine=True, track_running_stats=True)\n    (10): ReLU()\n    (11): MaxPool2d(kernel_size=2, stride=2, padding=0, dilation=1, ceil_mode=False)\n    (12): Conv2d(32, 64, kernel_size=(3, 3), stride=(1, 1), padding=(1, 1))\n    (13): BatchNorm2d(64, eps=1e-05, momentum=0.1, affine=True, track_running_stats=True)\n    (14): ReLU()\n    (15): MaxPool2d(kernel_size=2, stride=2, padding=0, dilation=1, ceil_mode=False)\n    (16): Conv2d(64, 128, kernel_size=(3, 3), stride=(1, 1), padding=(1, 1))\n    (17): BatchNorm2d(128, eps=1e-05, momentum=0.1, affine=True, track_running_stats=True)\n    (18): ReLU()\n    (19): MaxPool2d(kernel_size=2, stride=2, padding=0, dilation=1, ceil_mode=False)\n  )\n  (seq): Sequential(\n    (0): Flatten(start_dim=1, end_dim=-1)\n    (1): Linear(in_features=32256, out_features=64, bias=True)\n    (2): ReLU()\n    (3): Linear(in_features=64, out_features=32, bias=True)\n    (4): ReLU()\n    (5): Linear(in_features=32, out_features=7, bias=True)\n  )\n)"
}{
    "exp_name": "SimpleBNConv_full dataset, with weight  20231010_123316",
    "model_architect": "SimpleBNConv(\n  (features): Sequential(\n    (0): Conv2d(3, 8, kernel_size=(3, 3), stride=(1, 1), padding=(1, 1))\n    (1): BatchNorm2d(8, eps=1e-05, momentum=0.1, affine=True, track_running_stats=True)\n    (2): ReLU()\n    (3): MaxPool2d(kernel_size=2, stride=2, padding=0, dilation=1, ceil_mode=False)\n    (4): Conv2d(8, 16, kernel_size=(3, 3), stride=(1, 1), padding=(1, 1))\n    (5): BatchNorm2d(16, eps=1e-05, momentum=0.1, affine=True, track_running_stats=True)\n    (6): ReLU()\n    (7): MaxPool2d(kernel_size=2, stride=2, padding=0, dilation=1, ceil_mode=False)\n    (8): Conv2d(16, 32, kernel_size=(3, 3), stride=(1, 1), padding=(1, 1))\n    (9): BatchNorm2d(32, eps=1e-05, momentum=0.1, affine=True, track_running_stats=True)\n    (10): ReLU()\n    (11): MaxPool2d(kernel_size=2, stride=2, padding=0, dilation=1, ceil_mode=False)\n    (12): Conv2d(32, 64, kernel_size=(3, 3), stride=(1, 1), padding=(1, 1))\n    (13): BatchNorm2d(64, eps=1e-05, momentum=0.1, affine=True, track_running_stats=True)\n    (14): ReLU()\n    (15): MaxPool2d(kernel_size=2, stride=2, padding=0, dilation=1, ceil_mode=False)\n    (16): Conv2d(64, 128, kernel_size=(3, 3), stride=(1, 1), padding=(1, 1))\n    (17): BatchNorm2d(128, eps=1e-05, momentum=0.1, affine=True, track_running_stats=True)\n    (18): ReLU()\n    (19): MaxPool2d(kernel_size=2, stride=2, padding=0, dilation=1, ceil_mode=False)\n  )\n  (seq): Sequential(\n    (0): Flatten(start_dim=1, end_dim=-1)\n    (1): Linear(in_features=32256, out_features=64, bias=True)\n    (2): ReLU()\n    (3): Linear(in_features=64, out_features=32, bias=True)\n    (4): ReLU()\n    (5): Linear(in_features=32, out_features=7, bias=True)\n  )\n)"
}{
    "exp_name": "SimpleBNConv_full dataset, with weight, VerticalFlip  20231010_123947",
    "model_architect": "SimpleBNConv(\n  (features): Sequential(\n    (0): Conv2d(3, 8, kernel_size=(3, 3), stride=(1, 1), padding=(1, 1))\n    (1): BatchNorm2d(8, eps=1e-05, momentum=0.1, affine=True, track_running_stats=True)\n    (2): ReLU()\n    (3): MaxPool2d(kernel_size=2, stride=2, padding=0, dilation=1, ceil_mode=False)\n    (4): Conv2d(8, 16, kernel_size=(3, 3), stride=(1, 1), padding=(1, 1))\n    (5): BatchNorm2d(16, eps=1e-05, momentum=0.1, affine=True, track_running_stats=True)\n    (6): ReLU()\n    (7): MaxPool2d(kernel_size=2, stride=2, padding=0, dilation=1, ceil_mode=False)\n    (8): Conv2d(16, 32, kernel_size=(3, 3), stride=(1, 1), padding=(1, 1))\n    (9): BatchNorm2d(32, eps=1e-05, momentum=0.1, affine=True, track_running_stats=True)\n    (10): ReLU()\n    (11): MaxPool2d(kernel_size=2, stride=2, padding=0, dilation=1, ceil_mode=False)\n    (12): Conv2d(32, 64, kernel_size=(3, 3), stride=(1, 1), padding=(1, 1))\n    (13): BatchNorm2d(64, eps=1e-05, momentum=0.1, affine=True, track_running_stats=True)\n    (14): ReLU()\n    (15): MaxPool2d(kernel_size=2, stride=2, padding=0, dilation=1, ceil_mode=False)\n    (16): Conv2d(64, 128, kernel_size=(3, 3), stride=(1, 1), padding=(1, 1))\n    (17): BatchNorm2d(128, eps=1e-05, momentum=0.1, affine=True, track_running_stats=True)\n    (18): ReLU()\n    (19): MaxPool2d(kernel_size=2, stride=2, padding=0, dilation=1, ceil_mode=False)\n  )\n  (seq): Sequential(\n    (0): Flatten(start_dim=1, end_dim=-1)\n    (1): Linear(in_features=32256, out_features=64, bias=True)\n    (2): ReLU()\n    (3): Linear(in_features=64, out_features=32, bias=True)\n    (4): ReLU()\n    (5): Linear(in_features=32, out_features=7, bias=True)\n  )\n)"
}{
    "exp_name": "SimpleBNConv_full dataset, with weight, VerticalFlip  20231010_124834",
    "model_architect": "SimpleBNConv(\n  (features): Sequential(\n    (0): Conv2d(3, 8, kernel_size=(3, 3), stride=(1, 1), padding=(1, 1))\n    (1): BatchNorm2d(8, eps=1e-05, momentum=0.1, affine=True, track_running_stats=True)\n    (2): ReLU()\n    (3): MaxPool2d(kernel_size=2, stride=2, padding=0, dilation=1, ceil_mode=False)\n    (4): Conv2d(8, 16, kernel_size=(3, 3), stride=(1, 1), padding=(1, 1))\n    (5): BatchNorm2d(16, eps=1e-05, momentum=0.1, affine=True, track_running_stats=True)\n    (6): ReLU()\n    (7): MaxPool2d(kernel_size=2, stride=2, padding=0, dilation=1, ceil_mode=False)\n    (8): Conv2d(16, 32, kernel_size=(3, 3), stride=(1, 1), padding=(1, 1))\n    (9): BatchNorm2d(32, eps=1e-05, momentum=0.1, affine=True, track_running_stats=True)\n    (10): ReLU()\n    (11): MaxPool2d(kernel_size=2, stride=2, padding=0, dilation=1, ceil_mode=False)\n    (12): Conv2d(32, 64, kernel_size=(3, 3), stride=(1, 1), padding=(1, 1))\n    (13): BatchNorm2d(64, eps=1e-05, momentum=0.1, affine=True, track_running_stats=True)\n    (14): ReLU()\n    (15): MaxPool2d(kernel_size=2, stride=2, padding=0, dilation=1, ceil_mode=False)\n    (16): Conv2d(64, 128, kernel_size=(3, 3), stride=(1, 1), padding=(1, 1))\n    (17): BatchNorm2d(128, eps=1e-05, momentum=0.1, affine=True, track_running_stats=True)\n    (18): ReLU()\n    (19): MaxPool2d(kernel_size=2, stride=2, padding=0, dilation=1, ceil_mode=False)\n  )\n  (seq): Sequential(\n    (0): Flatten(start_dim=1, end_dim=-1)\n    (1): Linear(in_features=32256, out_features=64, bias=True)\n    (2): ReLU()\n    (3): Linear(in_features=64, out_features=32, bias=True)\n    (4): ReLU()\n    (5): Linear(in_features=32, out_features=7, bias=True)\n  )\n)"
}{
    "exp_name": "SimpleBNConv_full dataset, with weight, random erasing  20231010_125238",
    "model_architect": "SimpleBNConv(\n  (features): Sequential(\n    (0): Conv2d(3, 8, kernel_size=(3, 3), stride=(1, 1), padding=(1, 1))\n    (1): BatchNorm2d(8, eps=1e-05, momentum=0.1, affine=True, track_running_stats=True)\n    (2): ReLU()\n    (3): MaxPool2d(kernel_size=2, stride=2, padding=0, dilation=1, ceil_mode=False)\n    (4): Conv2d(8, 16, kernel_size=(3, 3), stride=(1, 1), padding=(1, 1))\n    (5): BatchNorm2d(16, eps=1e-05, momentum=0.1, affine=True, track_running_stats=True)\n    (6): ReLU()\n    (7): MaxPool2d(kernel_size=2, stride=2, padding=0, dilation=1, ceil_mode=False)\n    (8): Conv2d(16, 32, kernel_size=(3, 3), stride=(1, 1), padding=(1, 1))\n    (9): BatchNorm2d(32, eps=1e-05, momentum=0.1, affine=True, track_running_stats=True)\n    (10): ReLU()\n    (11): MaxPool2d(kernel_size=2, stride=2, padding=0, dilation=1, ceil_mode=False)\n    (12): Conv2d(32, 64, kernel_size=(3, 3), stride=(1, 1), padding=(1, 1))\n    (13): BatchNorm2d(64, eps=1e-05, momentum=0.1, affine=True, track_running_stats=True)\n    (14): ReLU()\n    (15): MaxPool2d(kernel_size=2, stride=2, padding=0, dilation=1, ceil_mode=False)\n    (16): Conv2d(64, 128, kernel_size=(3, 3), stride=(1, 1), padding=(1, 1))\n    (17): BatchNorm2d(128, eps=1e-05, momentum=0.1, affine=True, track_running_stats=True)\n    (18): ReLU()\n    (19): MaxPool2d(kernel_size=2, stride=2, padding=0, dilation=1, ceil_mode=False)\n  )\n  (seq): Sequential(\n    (0): Flatten(start_dim=1, end_dim=-1)\n    (1): Linear(in_features=32256, out_features=64, bias=True)\n    (2): ReLU()\n    (3): Linear(in_features=64, out_features=32, bias=True)\n    (4): ReLU()\n    (5): Linear(in_features=32, out_features=7, bias=True)\n  )\n)"
}{
    "exp_name": "SimpleBNConv_full dataset, with weight, random erasing  20231010_125953",
    "model_architect": "SimpleBNConv(\n  (features): Sequential(\n    (0): Conv2d(3, 8, kernel_size=(3, 3), stride=(1, 1), padding=(1, 1))\n    (1): BatchNorm2d(8, eps=1e-05, momentum=0.1, affine=True, track_running_stats=True)\n    (2): ReLU()\n    (3): MaxPool2d(kernel_size=2, stride=2, padding=0, dilation=1, ceil_mode=False)\n    (4): Conv2d(8, 16, kernel_size=(3, 3), stride=(1, 1), padding=(1, 1))\n    (5): BatchNorm2d(16, eps=1e-05, momentum=0.1, affine=True, track_running_stats=True)\n    (6): ReLU()\n    (7): MaxPool2d(kernel_size=2, stride=2, padding=0, dilation=1, ceil_mode=False)\n    (8): Conv2d(16, 32, kernel_size=(3, 3), stride=(1, 1), padding=(1, 1))\n    (9): BatchNorm2d(32, eps=1e-05, momentum=0.1, affine=True, track_running_stats=True)\n    (10): ReLU()\n    (11): MaxPool2d(kernel_size=2, stride=2, padding=0, dilation=1, ceil_mode=False)\n    (12): Conv2d(32, 64, kernel_size=(3, 3), stride=(1, 1), padding=(1, 1))\n    (13): BatchNorm2d(64, eps=1e-05, momentum=0.1, affine=True, track_running_stats=True)\n    (14): ReLU()\n    (15): MaxPool2d(kernel_size=2, stride=2, padding=0, dilation=1, ceil_mode=False)\n    (16): Conv2d(64, 128, kernel_size=(3, 3), stride=(1, 1), padding=(1, 1))\n    (17): BatchNorm2d(128, eps=1e-05, momentum=0.1, affine=True, track_running_stats=True)\n    (18): ReLU()\n    (19): MaxPool2d(kernel_size=2, stride=2, padding=0, dilation=1, ceil_mode=False)\n  )\n  (seq): Sequential(\n    (0): Flatten(start_dim=1, end_dim=-1)\n    (1): Linear(in_features=32256, out_features=64, bias=True)\n    (2): ReLU()\n    (3): Linear(in_features=64, out_features=32, bias=True)\n    (4): ReLU()\n    (5): Linear(in_features=32, out_features=7, bias=True)\n  )\n)"
}{
    "exp_name": "ResNet_resnet18 64 5 001 Adam noweight  20231011_222252",
    "model_architect": "ResNet(\n  (conv1): Conv2d(3, 64, kernel_size=(7, 7), stride=(2, 2), padding=(3, 3), bias=False)\n  (bn1): BatchNorm2d(64, eps=1e-05, momentum=0.1, affine=True, track_running_stats=True)\n  (relu): ReLU(inplace=True)\n  (maxpool): MaxPool2d(kernel_size=3, stride=2, padding=1, dilation=1, ceil_mode=False)\n  (layer1): Sequential(\n    (0): BasicBlock(\n      (conv1): Conv2d(64, 64, kernel_size=(3, 3), stride=(1, 1), padding=(1, 1), bias=False)\n      (bn1): BatchNorm2d(64, eps=1e-05, momentum=0.1, affine=True, track_running_stats=True)\n      (relu): ReLU(inplace=True)\n      (conv2): Conv2d(64, 64, kernel_size=(3, 3), stride=(1, 1), padding=(1, 1), bias=False)\n      (bn2): BatchNorm2d(64, eps=1e-05, momentum=0.1, affine=True, track_running_stats=True)\n    )\n    (1): BasicBlock(\n      (conv1): Conv2d(64, 64, kernel_size=(3, 3), stride=(1, 1), padding=(1, 1), bias=False)\n      (bn1): BatchNorm2d(64, eps=1e-05, momentum=0.1, affine=True, track_running_stats=True)\n      (relu): ReLU(inplace=True)\n      (conv2): Conv2d(64, 64, kernel_size=(3, 3), stride=(1, 1), padding=(1, 1), bias=False)\n      (bn2): BatchNorm2d(64, eps=1e-05, momentum=0.1, affine=True, track_running_stats=True)\n    )\n  )\n  (layer2): Sequential(\n    (0): BasicBlock(\n      (conv1): Conv2d(64, 128, kernel_size=(3, 3), stride=(2, 2), padding=(1, 1), bias=False)\n      (bn1): BatchNorm2d(128, eps=1e-05, momentum=0.1, affine=True, track_running_stats=True)\n      (relu): ReLU(inplace=True)\n      (conv2): Conv2d(128, 128, kernel_size=(3, 3), stride=(1, 1), padding=(1, 1), bias=False)\n      (bn2): BatchNorm2d(128, eps=1e-05, momentum=0.1, affine=True, track_running_stats=True)\n      (downsample): Sequential(\n        (0): Conv2d(64, 128, kernel_size=(1, 1), stride=(2, 2), bias=False)\n        (1): BatchNorm2d(128, eps=1e-05, momentum=0.1, affine=True, track_running_stats=True)\n      )\n    )\n    (1): BasicBlock(\n      (conv1): Conv2d(128, 128, kernel_size=(3, 3), stride=(1, 1), padding=(1, 1), bias=False)\n      (bn1): BatchNorm2d(128, eps=1e-05, momentum=0.1, affine=True, track_running_stats=True)\n      (relu): ReLU(inplace=True)\n      (conv2): Conv2d(128, 128, kernel_size=(3, 3), stride=(1, 1), padding=(1, 1), bias=False)\n      (bn2): BatchNorm2d(128, eps=1e-05, momentum=0.1, affine=True, track_running_stats=True)\n    )\n  )\n  (layer3): Sequential(\n    (0): BasicBlock(\n      (conv1): Conv2d(128, 256, kernel_size=(3, 3), stride=(2, 2), padding=(1, 1), bias=False)\n      (bn1): BatchNorm2d(256, eps=1e-05, momentum=0.1, affine=True, track_running_stats=True)\n      (relu): ReLU(inplace=True)\n      (conv2): Conv2d(256, 256, kernel_size=(3, 3), stride=(1, 1), padding=(1, 1), bias=False)\n      (bn2): BatchNorm2d(256, eps=1e-05, momentum=0.1, affine=True, track_running_stats=True)\n      (downsample): Sequential(\n        (0): Conv2d(128, 256, kernel_size=(1, 1), stride=(2, 2), bias=False)\n        (1): BatchNorm2d(256, eps=1e-05, momentum=0.1, affine=True, track_running_stats=True)\n      )\n    )\n    (1): BasicBlock(\n      (conv1): Conv2d(256, 256, kernel_size=(3, 3), stride=(1, 1), padding=(1, 1), bias=False)\n      (bn1): BatchNorm2d(256, eps=1e-05, momentum=0.1, affine=True, track_running_stats=True)\n      (relu): ReLU(inplace=True)\n      (conv2): Conv2d(256, 256, kernel_size=(3, 3), stride=(1, 1), padding=(1, 1), bias=False)\n      (bn2): BatchNorm2d(256, eps=1e-05, momentum=0.1, affine=True, track_running_stats=True)\n    )\n  )\n  (layer4): Sequential(\n    (0): BasicBlock(\n      (conv1): Conv2d(256, 512, kernel_size=(3, 3), stride=(2, 2), padding=(1, 1), bias=False)\n      (bn1): BatchNorm2d(512, eps=1e-05, momentum=0.1, affine=True, track_running_stats=True)\n      (relu): ReLU(inplace=True)\n      (conv2): Conv2d(512, 512, kernel_size=(3, 3), stride=(1, 1), padding=(1, 1), bias=False)\n      (bn2): BatchNorm2d(512, eps=1e-05, momentum=0.1, affine=True, track_running_stats=True)\n      (downsample): Sequential(\n        (0): Conv2d(256, 512, kernel_size=(1, 1), stride=(2, 2), bias=False)\n        (1): BatchNorm2d(512, eps=1e-05, momentum=0.1, affine=True, track_running_stats=True)\n      )\n    )\n    (1): BasicBlock(\n      (conv1): Conv2d(512, 512, kernel_size=(3, 3), stride=(1, 1), padding=(1, 1), bias=False)\n      (bn1): BatchNorm2d(512, eps=1e-05, momentum=0.1, affine=True, track_running_stats=True)\n      (relu): ReLU(inplace=True)\n      (conv2): Conv2d(512, 512, kernel_size=(3, 3), stride=(1, 1), padding=(1, 1), bias=False)\n      (bn2): BatchNorm2d(512, eps=1e-05, momentum=0.1, affine=True, track_running_stats=True)\n    )\n  )\n  (avgpool): AdaptiveAvgPool2d(output_size=(1, 1))\n  (fc): Linear(in_features=512, out_features=7, bias=True)\n)"
}{
    "exp_name": "ResNet_resnet18 64 5 001 Adam noweight S-dataset  20231011_224700",
    "model_architect": "ResNet(\n  (conv1): Conv2d(3, 64, kernel_size=(7, 7), stride=(2, 2), padding=(3, 3), bias=False)\n  (bn1): BatchNorm2d(64, eps=1e-05, momentum=0.1, affine=True, track_running_stats=True)\n  (relu): ReLU(inplace=True)\n  (maxpool): MaxPool2d(kernel_size=3, stride=2, padding=1, dilation=1, ceil_mode=False)\n  (layer1): Sequential(\n    (0): BasicBlock(\n      (conv1): Conv2d(64, 64, kernel_size=(3, 3), stride=(1, 1), padding=(1, 1), bias=False)\n      (bn1): BatchNorm2d(64, eps=1e-05, momentum=0.1, affine=True, track_running_stats=True)\n      (relu): ReLU(inplace=True)\n      (conv2): Conv2d(64, 64, kernel_size=(3, 3), stride=(1, 1), padding=(1, 1), bias=False)\n      (bn2): BatchNorm2d(64, eps=1e-05, momentum=0.1, affine=True, track_running_stats=True)\n    )\n    (1): BasicBlock(\n      (conv1): Conv2d(64, 64, kernel_size=(3, 3), stride=(1, 1), padding=(1, 1), bias=False)\n      (bn1): BatchNorm2d(64, eps=1e-05, momentum=0.1, affine=True, track_running_stats=True)\n      (relu): ReLU(inplace=True)\n      (conv2): Conv2d(64, 64, kernel_size=(3, 3), stride=(1, 1), padding=(1, 1), bias=False)\n      (bn2): BatchNorm2d(64, eps=1e-05, momentum=0.1, affine=True, track_running_stats=True)\n    )\n  )\n  (layer2): Sequential(\n    (0): BasicBlock(\n      (conv1): Conv2d(64, 128, kernel_size=(3, 3), stride=(2, 2), padding=(1, 1), bias=False)\n      (bn1): BatchNorm2d(128, eps=1e-05, momentum=0.1, affine=True, track_running_stats=True)\n      (relu): ReLU(inplace=True)\n      (conv2): Conv2d(128, 128, kernel_size=(3, 3), stride=(1, 1), padding=(1, 1), bias=False)\n      (bn2): BatchNorm2d(128, eps=1e-05, momentum=0.1, affine=True, track_running_stats=True)\n      (downsample): Sequential(\n        (0): Conv2d(64, 128, kernel_size=(1, 1), stride=(2, 2), bias=False)\n        (1): BatchNorm2d(128, eps=1e-05, momentum=0.1, affine=True, track_running_stats=True)\n      )\n    )\n    (1): BasicBlock(\n      (conv1): Conv2d(128, 128, kernel_size=(3, 3), stride=(1, 1), padding=(1, 1), bias=False)\n      (bn1): BatchNorm2d(128, eps=1e-05, momentum=0.1, affine=True, track_running_stats=True)\n      (relu): ReLU(inplace=True)\n      (conv2): Conv2d(128, 128, kernel_size=(3, 3), stride=(1, 1), padding=(1, 1), bias=False)\n      (bn2): BatchNorm2d(128, eps=1e-05, momentum=0.1, affine=True, track_running_stats=True)\n    )\n  )\n  (layer3): Sequential(\n    (0): BasicBlock(\n      (conv1): Conv2d(128, 256, kernel_size=(3, 3), stride=(2, 2), padding=(1, 1), bias=False)\n      (bn1): BatchNorm2d(256, eps=1e-05, momentum=0.1, affine=True, track_running_stats=True)\n      (relu): ReLU(inplace=True)\n      (conv2): Conv2d(256, 256, kernel_size=(3, 3), stride=(1, 1), padding=(1, 1), bias=False)\n      (bn2): BatchNorm2d(256, eps=1e-05, momentum=0.1, affine=True, track_running_stats=True)\n      (downsample): Sequential(\n        (0): Conv2d(128, 256, kernel_size=(1, 1), stride=(2, 2), bias=False)\n        (1): BatchNorm2d(256, eps=1e-05, momentum=0.1, affine=True, track_running_stats=True)\n      )\n    )\n    (1): BasicBlock(\n      (conv1): Conv2d(256, 256, kernel_size=(3, 3), stride=(1, 1), padding=(1, 1), bias=False)\n      (bn1): BatchNorm2d(256, eps=1e-05, momentum=0.1, affine=True, track_running_stats=True)\n      (relu): ReLU(inplace=True)\n      (conv2): Conv2d(256, 256, kernel_size=(3, 3), stride=(1, 1), padding=(1, 1), bias=False)\n      (bn2): BatchNorm2d(256, eps=1e-05, momentum=0.1, affine=True, track_running_stats=True)\n    )\n  )\n  (layer4): Sequential(\n    (0): BasicBlock(\n      (conv1): Conv2d(256, 512, kernel_size=(3, 3), stride=(2, 2), padding=(1, 1), bias=False)\n      (bn1): BatchNorm2d(512, eps=1e-05, momentum=0.1, affine=True, track_running_stats=True)\n      (relu): ReLU(inplace=True)\n      (conv2): Conv2d(512, 512, kernel_size=(3, 3), stride=(1, 1), padding=(1, 1), bias=False)\n      (bn2): BatchNorm2d(512, eps=1e-05, momentum=0.1, affine=True, track_running_stats=True)\n      (downsample): Sequential(\n        (0): Conv2d(256, 512, kernel_size=(1, 1), stride=(2, 2), bias=False)\n        (1): BatchNorm2d(512, eps=1e-05, momentum=0.1, affine=True, track_running_stats=True)\n      )\n    )\n    (1): BasicBlock(\n      (conv1): Conv2d(512, 512, kernel_size=(3, 3), stride=(1, 1), padding=(1, 1), bias=False)\n      (bn1): BatchNorm2d(512, eps=1e-05, momentum=0.1, affine=True, track_running_stats=True)\n      (relu): ReLU(inplace=True)\n      (conv2): Conv2d(512, 512, kernel_size=(3, 3), stride=(1, 1), padding=(1, 1), bias=False)\n      (bn2): BatchNorm2d(512, eps=1e-05, momentum=0.1, affine=True, track_running_stats=True)\n    )\n  )\n  (avgpool): AdaptiveAvgPool2d(output_size=(1, 1))\n  (fc): Linear(in_features=512, out_features=7, bias=True)\n)"
}{
    "exp_name": "ResNet_resnet18 64 5 001 Adam noweight S-dataset  20231011_225301",
    "model_architect": "ResNet(\n  (conv1): Conv2d(3, 64, kernel_size=(7, 7), stride=(2, 2), padding=(3, 3), bias=False)\n  (bn1): BatchNorm2d(64, eps=1e-05, momentum=0.1, affine=True, track_running_stats=True)\n  (relu): ReLU(inplace=True)\n  (maxpool): MaxPool2d(kernel_size=3, stride=2, padding=1, dilation=1, ceil_mode=False)\n  (layer1): Sequential(\n    (0): BasicBlock(\n      (conv1): Conv2d(64, 64, kernel_size=(3, 3), stride=(1, 1), padding=(1, 1), bias=False)\n      (bn1): BatchNorm2d(64, eps=1e-05, momentum=0.1, affine=True, track_running_stats=True)\n      (relu): ReLU(inplace=True)\n      (conv2): Conv2d(64, 64, kernel_size=(3, 3), stride=(1, 1), padding=(1, 1), bias=False)\n      (bn2): BatchNorm2d(64, eps=1e-05, momentum=0.1, affine=True, track_running_stats=True)\n    )\n    (1): BasicBlock(\n      (conv1): Conv2d(64, 64, kernel_size=(3, 3), stride=(1, 1), padding=(1, 1), bias=False)\n      (bn1): BatchNorm2d(64, eps=1e-05, momentum=0.1, affine=True, track_running_stats=True)\n      (relu): ReLU(inplace=True)\n      (conv2): Conv2d(64, 64, kernel_size=(3, 3), stride=(1, 1), padding=(1, 1), bias=False)\n      (bn2): BatchNorm2d(64, eps=1e-05, momentum=0.1, affine=True, track_running_stats=True)\n    )\n  )\n  (layer2): Sequential(\n    (0): BasicBlock(\n      (conv1): Conv2d(64, 128, kernel_size=(3, 3), stride=(2, 2), padding=(1, 1), bias=False)\n      (bn1): BatchNorm2d(128, eps=1e-05, momentum=0.1, affine=True, track_running_stats=True)\n      (relu): ReLU(inplace=True)\n      (conv2): Conv2d(128, 128, kernel_size=(3, 3), stride=(1, 1), padding=(1, 1), bias=False)\n      (bn2): BatchNorm2d(128, eps=1e-05, momentum=0.1, affine=True, track_running_stats=True)\n      (downsample): Sequential(\n        (0): Conv2d(64, 128, kernel_size=(1, 1), stride=(2, 2), bias=False)\n        (1): BatchNorm2d(128, eps=1e-05, momentum=0.1, affine=True, track_running_stats=True)\n      )\n    )\n    (1): BasicBlock(\n      (conv1): Conv2d(128, 128, kernel_size=(3, 3), stride=(1, 1), padding=(1, 1), bias=False)\n      (bn1): BatchNorm2d(128, eps=1e-05, momentum=0.1, affine=True, track_running_stats=True)\n      (relu): ReLU(inplace=True)\n      (conv2): Conv2d(128, 128, kernel_size=(3, 3), stride=(1, 1), padding=(1, 1), bias=False)\n      (bn2): BatchNorm2d(128, eps=1e-05, momentum=0.1, affine=True, track_running_stats=True)\n    )\n  )\n  (layer3): Sequential(\n    (0): BasicBlock(\n      (conv1): Conv2d(128, 256, kernel_size=(3, 3), stride=(2, 2), padding=(1, 1), bias=False)\n      (bn1): BatchNorm2d(256, eps=1e-05, momentum=0.1, affine=True, track_running_stats=True)\n      (relu): ReLU(inplace=True)\n      (conv2): Conv2d(256, 256, kernel_size=(3, 3), stride=(1, 1), padding=(1, 1), bias=False)\n      (bn2): BatchNorm2d(256, eps=1e-05, momentum=0.1, affine=True, track_running_stats=True)\n      (downsample): Sequential(\n        (0): Conv2d(128, 256, kernel_size=(1, 1), stride=(2, 2), bias=False)\n        (1): BatchNorm2d(256, eps=1e-05, momentum=0.1, affine=True, track_running_stats=True)\n      )\n    )\n    (1): BasicBlock(\n      (conv1): Conv2d(256, 256, kernel_size=(3, 3), stride=(1, 1), padding=(1, 1), bias=False)\n      (bn1): BatchNorm2d(256, eps=1e-05, momentum=0.1, affine=True, track_running_stats=True)\n      (relu): ReLU(inplace=True)\n      (conv2): Conv2d(256, 256, kernel_size=(3, 3), stride=(1, 1), padding=(1, 1), bias=False)\n      (bn2): BatchNorm2d(256, eps=1e-05, momentum=0.1, affine=True, track_running_stats=True)\n    )\n  )\n  (layer4): Sequential(\n    (0): BasicBlock(\n      (conv1): Conv2d(256, 512, kernel_size=(3, 3), stride=(2, 2), padding=(1, 1), bias=False)\n      (bn1): BatchNorm2d(512, eps=1e-05, momentum=0.1, affine=True, track_running_stats=True)\n      (relu): ReLU(inplace=True)\n      (conv2): Conv2d(512, 512, kernel_size=(3, 3), stride=(1, 1), padding=(1, 1), bias=False)\n      (bn2): BatchNorm2d(512, eps=1e-05, momentum=0.1, affine=True, track_running_stats=True)\n      (downsample): Sequential(\n        (0): Conv2d(256, 512, kernel_size=(1, 1), stride=(2, 2), bias=False)\n        (1): BatchNorm2d(512, eps=1e-05, momentum=0.1, affine=True, track_running_stats=True)\n      )\n    )\n    (1): BasicBlock(\n      (conv1): Conv2d(512, 512, kernel_size=(3, 3), stride=(1, 1), padding=(1, 1), bias=False)\n      (bn1): BatchNorm2d(512, eps=1e-05, momentum=0.1, affine=True, track_running_stats=True)\n      (relu): ReLU(inplace=True)\n      (conv2): Conv2d(512, 512, kernel_size=(3, 3), stride=(1, 1), padding=(1, 1), bias=False)\n      (bn2): BatchNorm2d(512, eps=1e-05, momentum=0.1, affine=True, track_running_stats=True)\n    )\n  )\n  (avgpool): AdaptiveAvgPool2d(output_size=(1, 1))\n  (fc): Linear(in_features=512, out_features=7, bias=True)\n)"
}{
    "exp_name": "ResNet_resnet18 64 5 001 Adam weight F-dataset  20231011_233136",
    "model_architect": "ResNet(\n  (conv1): Conv2d(3, 64, kernel_size=(7, 7), stride=(2, 2), padding=(3, 3), bias=False)\n  (bn1): BatchNorm2d(64, eps=1e-05, momentum=0.1, affine=True, track_running_stats=True)\n  (relu): ReLU(inplace=True)\n  (maxpool): MaxPool2d(kernel_size=3, stride=2, padding=1, dilation=1, ceil_mode=False)\n  (layer1): Sequential(\n    (0): BasicBlock(\n      (conv1): Conv2d(64, 64, kernel_size=(3, 3), stride=(1, 1), padding=(1, 1), bias=False)\n      (bn1): BatchNorm2d(64, eps=1e-05, momentum=0.1, affine=True, track_running_stats=True)\n      (relu): ReLU(inplace=True)\n      (conv2): Conv2d(64, 64, kernel_size=(3, 3), stride=(1, 1), padding=(1, 1), bias=False)\n      (bn2): BatchNorm2d(64, eps=1e-05, momentum=0.1, affine=True, track_running_stats=True)\n    )\n    (1): BasicBlock(\n      (conv1): Conv2d(64, 64, kernel_size=(3, 3), stride=(1, 1), padding=(1, 1), bias=False)\n      (bn1): BatchNorm2d(64, eps=1e-05, momentum=0.1, affine=True, track_running_stats=True)\n      (relu): ReLU(inplace=True)\n      (conv2): Conv2d(64, 64, kernel_size=(3, 3), stride=(1, 1), padding=(1, 1), bias=False)\n      (bn2): BatchNorm2d(64, eps=1e-05, momentum=0.1, affine=True, track_running_stats=True)\n    )\n  )\n  (layer2): Sequential(\n    (0): BasicBlock(\n      (conv1): Conv2d(64, 128, kernel_size=(3, 3), stride=(2, 2), padding=(1, 1), bias=False)\n      (bn1): BatchNorm2d(128, eps=1e-05, momentum=0.1, affine=True, track_running_stats=True)\n      (relu): ReLU(inplace=True)\n      (conv2): Conv2d(128, 128, kernel_size=(3, 3), stride=(1, 1), padding=(1, 1), bias=False)\n      (bn2): BatchNorm2d(128, eps=1e-05, momentum=0.1, affine=True, track_running_stats=True)\n      (downsample): Sequential(\n        (0): Conv2d(64, 128, kernel_size=(1, 1), stride=(2, 2), bias=False)\n        (1): BatchNorm2d(128, eps=1e-05, momentum=0.1, affine=True, track_running_stats=True)\n      )\n    )\n    (1): BasicBlock(\n      (conv1): Conv2d(128, 128, kernel_size=(3, 3), stride=(1, 1), padding=(1, 1), bias=False)\n      (bn1): BatchNorm2d(128, eps=1e-05, momentum=0.1, affine=True, track_running_stats=True)\n      (relu): ReLU(inplace=True)\n      (conv2): Conv2d(128, 128, kernel_size=(3, 3), stride=(1, 1), padding=(1, 1), bias=False)\n      (bn2): BatchNorm2d(128, eps=1e-05, momentum=0.1, affine=True, track_running_stats=True)\n    )\n  )\n  (layer3): Sequential(\n    (0): BasicBlock(\n      (conv1): Conv2d(128, 256, kernel_size=(3, 3), stride=(2, 2), padding=(1, 1), bias=False)\n      (bn1): BatchNorm2d(256, eps=1e-05, momentum=0.1, affine=True, track_running_stats=True)\n      (relu): ReLU(inplace=True)\n      (conv2): Conv2d(256, 256, kernel_size=(3, 3), stride=(1, 1), padding=(1, 1), bias=False)\n      (bn2): BatchNorm2d(256, eps=1e-05, momentum=0.1, affine=True, track_running_stats=True)\n      (downsample): Sequential(\n        (0): Conv2d(128, 256, kernel_size=(1, 1), stride=(2, 2), bias=False)\n        (1): BatchNorm2d(256, eps=1e-05, momentum=0.1, affine=True, track_running_stats=True)\n      )\n    )\n    (1): BasicBlock(\n      (conv1): Conv2d(256, 256, kernel_size=(3, 3), stride=(1, 1), padding=(1, 1), bias=False)\n      (bn1): BatchNorm2d(256, eps=1e-05, momentum=0.1, affine=True, track_running_stats=True)\n      (relu): ReLU(inplace=True)\n      (conv2): Conv2d(256, 256, kernel_size=(3, 3), stride=(1, 1), padding=(1, 1), bias=False)\n      (bn2): BatchNorm2d(256, eps=1e-05, momentum=0.1, affine=True, track_running_stats=True)\n    )\n  )\n  (layer4): Sequential(\n    (0): BasicBlock(\n      (conv1): Conv2d(256, 512, kernel_size=(3, 3), stride=(2, 2), padding=(1, 1), bias=False)\n      (bn1): BatchNorm2d(512, eps=1e-05, momentum=0.1, affine=True, track_running_stats=True)\n      (relu): ReLU(inplace=True)\n      (conv2): Conv2d(512, 512, kernel_size=(3, 3), stride=(1, 1), padding=(1, 1), bias=False)\n      (bn2): BatchNorm2d(512, eps=1e-05, momentum=0.1, affine=True, track_running_stats=True)\n      (downsample): Sequential(\n        (0): Conv2d(256, 512, kernel_size=(1, 1), stride=(2, 2), bias=False)\n        (1): BatchNorm2d(512, eps=1e-05, momentum=0.1, affine=True, track_running_stats=True)\n      )\n    )\n    (1): BasicBlock(\n      (conv1): Conv2d(512, 512, kernel_size=(3, 3), stride=(1, 1), padding=(1, 1), bias=False)\n      (bn1): BatchNorm2d(512, eps=1e-05, momentum=0.1, affine=True, track_running_stats=True)\n      (relu): ReLU(inplace=True)\n      (conv2): Conv2d(512, 512, kernel_size=(3, 3), stride=(1, 1), padding=(1, 1), bias=False)\n      (bn2): BatchNorm2d(512, eps=1e-05, momentum=0.1, affine=True, track_running_stats=True)\n    )\n  )\n  (avgpool): AdaptiveAvgPool2d(output_size=(1, 1))\n  (fc): Linear(in_features=512, out_features=7, bias=True)\n)"
}{
    "exp_name": "ResNet_resnet18 64 5 001 Adam weight F-dataset  20231011_233804",
    "model_architect": "ResNet(\n  (conv1): Conv2d(3, 64, kernel_size=(7, 7), stride=(2, 2), padding=(3, 3), bias=False)\n  (bn1): BatchNorm2d(64, eps=1e-05, momentum=0.1, affine=True, track_running_stats=True)\n  (relu): ReLU(inplace=True)\n  (maxpool): MaxPool2d(kernel_size=3, stride=2, padding=1, dilation=1, ceil_mode=False)\n  (layer1): Sequential(\n    (0): BasicBlock(\n      (conv1): Conv2d(64, 64, kernel_size=(3, 3), stride=(1, 1), padding=(1, 1), bias=False)\n      (bn1): BatchNorm2d(64, eps=1e-05, momentum=0.1, affine=True, track_running_stats=True)\n      (relu): ReLU(inplace=True)\n      (conv2): Conv2d(64, 64, kernel_size=(3, 3), stride=(1, 1), padding=(1, 1), bias=False)\n      (bn2): BatchNorm2d(64, eps=1e-05, momentum=0.1, affine=True, track_running_stats=True)\n    )\n    (1): BasicBlock(\n      (conv1): Conv2d(64, 64, kernel_size=(3, 3), stride=(1, 1), padding=(1, 1), bias=False)\n      (bn1): BatchNorm2d(64, eps=1e-05, momentum=0.1, affine=True, track_running_stats=True)\n      (relu): ReLU(inplace=True)\n      (conv2): Conv2d(64, 64, kernel_size=(3, 3), stride=(1, 1), padding=(1, 1), bias=False)\n      (bn2): BatchNorm2d(64, eps=1e-05, momentum=0.1, affine=True, track_running_stats=True)\n    )\n  )\n  (layer2): Sequential(\n    (0): BasicBlock(\n      (conv1): Conv2d(64, 128, kernel_size=(3, 3), stride=(2, 2), padding=(1, 1), bias=False)\n      (bn1): BatchNorm2d(128, eps=1e-05, momentum=0.1, affine=True, track_running_stats=True)\n      (relu): ReLU(inplace=True)\n      (conv2): Conv2d(128, 128, kernel_size=(3, 3), stride=(1, 1), padding=(1, 1), bias=False)\n      (bn2): BatchNorm2d(128, eps=1e-05, momentum=0.1, affine=True, track_running_stats=True)\n      (downsample): Sequential(\n        (0): Conv2d(64, 128, kernel_size=(1, 1), stride=(2, 2), bias=False)\n        (1): BatchNorm2d(128, eps=1e-05, momentum=0.1, affine=True, track_running_stats=True)\n      )\n    )\n    (1): BasicBlock(\n      (conv1): Conv2d(128, 128, kernel_size=(3, 3), stride=(1, 1), padding=(1, 1), bias=False)\n      (bn1): BatchNorm2d(128, eps=1e-05, momentum=0.1, affine=True, track_running_stats=True)\n      (relu): ReLU(inplace=True)\n      (conv2): Conv2d(128, 128, kernel_size=(3, 3), stride=(1, 1), padding=(1, 1), bias=False)\n      (bn2): BatchNorm2d(128, eps=1e-05, momentum=0.1, affine=True, track_running_stats=True)\n    )\n  )\n  (layer3): Sequential(\n    (0): BasicBlock(\n      (conv1): Conv2d(128, 256, kernel_size=(3, 3), stride=(2, 2), padding=(1, 1), bias=False)\n      (bn1): BatchNorm2d(256, eps=1e-05, momentum=0.1, affine=True, track_running_stats=True)\n      (relu): ReLU(inplace=True)\n      (conv2): Conv2d(256, 256, kernel_size=(3, 3), stride=(1, 1), padding=(1, 1), bias=False)\n      (bn2): BatchNorm2d(256, eps=1e-05, momentum=0.1, affine=True, track_running_stats=True)\n      (downsample): Sequential(\n        (0): Conv2d(128, 256, kernel_size=(1, 1), stride=(2, 2), bias=False)\n        (1): BatchNorm2d(256, eps=1e-05, momentum=0.1, affine=True, track_running_stats=True)\n      )\n    )\n    (1): BasicBlock(\n      (conv1): Conv2d(256, 256, kernel_size=(3, 3), stride=(1, 1), padding=(1, 1), bias=False)\n      (bn1): BatchNorm2d(256, eps=1e-05, momentum=0.1, affine=True, track_running_stats=True)\n      (relu): ReLU(inplace=True)\n      (conv2): Conv2d(256, 256, kernel_size=(3, 3), stride=(1, 1), padding=(1, 1), bias=False)\n      (bn2): BatchNorm2d(256, eps=1e-05, momentum=0.1, affine=True, track_running_stats=True)\n    )\n  )\n  (layer4): Sequential(\n    (0): BasicBlock(\n      (conv1): Conv2d(256, 512, kernel_size=(3, 3), stride=(2, 2), padding=(1, 1), bias=False)\n      (bn1): BatchNorm2d(512, eps=1e-05, momentum=0.1, affine=True, track_running_stats=True)\n      (relu): ReLU(inplace=True)\n      (conv2): Conv2d(512, 512, kernel_size=(3, 3), stride=(1, 1), padding=(1, 1), bias=False)\n      (bn2): BatchNorm2d(512, eps=1e-05, momentum=0.1, affine=True, track_running_stats=True)\n      (downsample): Sequential(\n        (0): Conv2d(256, 512, kernel_size=(1, 1), stride=(2, 2), bias=False)\n        (1): BatchNorm2d(512, eps=1e-05, momentum=0.1, affine=True, track_running_stats=True)\n      )\n    )\n    (1): BasicBlock(\n      (conv1): Conv2d(512, 512, kernel_size=(3, 3), stride=(1, 1), padding=(1, 1), bias=False)\n      (bn1): BatchNorm2d(512, eps=1e-05, momentum=0.1, affine=True, track_running_stats=True)\n      (relu): ReLU(inplace=True)\n      (conv2): Conv2d(512, 512, kernel_size=(3, 3), stride=(1, 1), padding=(1, 1), bias=False)\n      (bn2): BatchNorm2d(512, eps=1e-05, momentum=0.1, affine=True, track_running_stats=True)\n    )\n  )\n  (avgpool): AdaptiveAvgPool2d(output_size=(1, 1))\n  (fc): Linear(in_features=512, out_features=7, bias=True)\n)"
}{
    "exp_name": "SimpleBNConv_SimpleBNConv 64 5 001 Adam weight F-dataset  20231012_021452",
    "model_architect": "SimpleBNConv(\n  (features): Sequential(\n    (0): Conv2d(3, 8, kernel_size=(3, 3), stride=(1, 1), padding=(1, 1))\n    (1): BatchNorm2d(8, eps=1e-05, momentum=0.1, affine=True, track_running_stats=True)\n    (2): ReLU()\n    (3): MaxPool2d(kernel_size=2, stride=2, padding=0, dilation=1, ceil_mode=False)\n    (4): Conv2d(8, 16, kernel_size=(3, 3), stride=(1, 1), padding=(1, 1))\n    (5): BatchNorm2d(16, eps=1e-05, momentum=0.1, affine=True, track_running_stats=True)\n    (6): ReLU()\n    (7): MaxPool2d(kernel_size=2, stride=2, padding=0, dilation=1, ceil_mode=False)\n    (8): Conv2d(16, 32, kernel_size=(3, 3), stride=(1, 1), padding=(1, 1))\n    (9): BatchNorm2d(32, eps=1e-05, momentum=0.1, affine=True, track_running_stats=True)\n    (10): ReLU()\n    (11): MaxPool2d(kernel_size=2, stride=2, padding=0, dilation=1, ceil_mode=False)\n    (12): Conv2d(32, 64, kernel_size=(3, 3), stride=(1, 1), padding=(1, 1))\n    (13): BatchNorm2d(64, eps=1e-05, momentum=0.1, affine=True, track_running_stats=True)\n    (14): ReLU()\n    (15): MaxPool2d(kernel_size=2, stride=2, padding=0, dilation=1, ceil_mode=False)\n    (16): Conv2d(64, 128, kernel_size=(3, 3), stride=(1, 1), padding=(1, 1))\n    (17): BatchNorm2d(128, eps=1e-05, momentum=0.1, affine=True, track_running_stats=True)\n    (18): ReLU()\n    (19): MaxPool2d(kernel_size=2, stride=2, padding=0, dilation=1, ceil_mode=False)\n  )\n  (seq): Sequential(\n    (0): Flatten(start_dim=1, end_dim=-1)\n    (1): Linear(in_features=32256, out_features=64, bias=True)\n    (2): ReLU()\n    (3): Linear(in_features=64, out_features=32, bias=True)\n    (4): ReLU()\n    (5): Linear(in_features=32, out_features=7, bias=True)\n  )\n)"
}{
    "exp_name": "DropoutConvNet_SimpleBNConv 64 5 001 Adam weight F-dataset  20231012_021809",
    "model_architect": "DropoutConvNet(\n  (features): Sequential(\n    (0): Conv2d(3, 8, kernel_size=(3, 3), stride=(1, 1))\n    (1): ReLU()\n    (2): MaxPool2d(kernel_size=2, stride=2, padding=0, dilation=1, ceil_mode=False)\n    (3): Conv2d(8, 16, kernel_size=(3, 3), stride=(1, 1))\n    (4): ReLU()\n    (5): MaxPool2d(kernel_size=2, stride=2, padding=0, dilation=1, ceil_mode=False)\n    (6): Conv2d(16, 32, kernel_size=(3, 3), stride=(1, 1))\n    (7): ReLU()\n    (8): MaxPool2d(kernel_size=2, stride=2, padding=0, dilation=1, ceil_mode=False)\n    (9): Conv2d(32, 64, kernel_size=(3, 3), stride=(1, 1))\n    (10): ReLU()\n    (11): MaxPool2d(kernel_size=2, stride=2, padding=0, dilation=1, ceil_mode=False)\n    (12): Conv2d(64, 128, kernel_size=(3, 3), stride=(1, 1))\n    (13): ReLU()\n    (14): MaxPool2d(kernel_size=2, stride=2, padding=0, dilation=1, ceil_mode=False)\n  )\n  (seq): Sequential(\n    (0): Flatten(start_dim=1, end_dim=-1)\n    (1): Dropout(p=0.25, inplace=False)\n    (2): Linear(in_features=32256, out_features=64, bias=True)\n    (3): ReLU()\n    (4): Dropout(p=0.25, inplace=False)\n    (5): Linear(in_features=64, out_features=32, bias=True)\n    (6): ReLU()\n    (7): Linear(in_features=32, out_features=7, bias=True)\n  )\n)"
}{
    "exp_name": "DropoutConvNet_SimpleBNConv 64 5 001 Adam weight F-dataset  20231012_021927",
    "model_architect": "DropoutConvNet(\n  (features): Sequential(\n    (0): Conv2d(3, 8, kernel_size=(3, 3), stride=(1, 1))\n    (1): ReLU()\n    (2): MaxPool2d(kernel_size=2, stride=2, padding=0, dilation=1, ceil_mode=False)\n    (3): Conv2d(8, 16, kernel_size=(3, 3), stride=(1, 1))\n    (4): ReLU()\n    (5): MaxPool2d(kernel_size=2, stride=2, padding=0, dilation=1, ceil_mode=False)\n    (6): Conv2d(16, 32, kernel_size=(3, 3), stride=(1, 1))\n    (7): ReLU()\n    (8): MaxPool2d(kernel_size=2, stride=2, padding=0, dilation=1, ceil_mode=False)\n    (9): Conv2d(32, 64, kernel_size=(3, 3), stride=(1, 1))\n    (10): ReLU()\n    (11): MaxPool2d(kernel_size=2, stride=2, padding=0, dilation=1, ceil_mode=False)\n    (12): Conv2d(64, 128, kernel_size=(3, 3), stride=(1, 1))\n    (13): ReLU()\n    (14): MaxPool2d(kernel_size=2, stride=2, padding=0, dilation=1, ceil_mode=False)\n  )\n  (seq): Sequential(\n    (0): Flatten(start_dim=1, end_dim=-1)\n    (1): Dropout(p=0.25, inplace=False)\n    (2): Linear(in_features=32256, out_features=64, bias=True)\n    (3): ReLU()\n    (4): Dropout(p=0.25, inplace=False)\n    (5): Linear(in_features=64, out_features=32, bias=True)\n    (6): ReLU()\n    (7): Linear(in_features=32, out_features=7, bias=True)\n  )\n)"
}{
    "exp_name": "DropoutConvNet_SimpleBNConv 64 5 001 Adam weight F-dataset  20231012_022219",
    "model_architect": "DropoutConvNet(\n  (features): Sequential(\n    (0): Conv2d(3, 8, kernel_size=(3, 3), stride=(1, 1))\n    (1): ReLU()\n    (2): MaxPool2d(kernel_size=2, stride=2, padding=0, dilation=1, ceil_mode=False)\n    (3): Conv2d(8, 16, kernel_size=(3, 3), stride=(1, 1))\n    (4): ReLU()\n    (5): MaxPool2d(kernel_size=2, stride=2, padding=0, dilation=1, ceil_mode=False)\n    (6): Conv2d(16, 32, kernel_size=(3, 3), stride=(1, 1))\n    (7): ReLU()\n    (8): MaxPool2d(kernel_size=2, stride=2, padding=0, dilation=1, ceil_mode=False)\n    (9): Conv2d(32, 64, kernel_size=(3, 3), stride=(1, 1))\n    (10): ReLU()\n    (11): MaxPool2d(kernel_size=2, stride=2, padding=0, dilation=1, ceil_mode=False)\n    (12): Conv2d(64, 128, kernel_size=(3, 3), stride=(1, 1))\n    (13): ReLU()\n    (14): MaxPool2d(kernel_size=2, stride=2, padding=0, dilation=1, ceil_mode=False)\n  )\n  (seq): Sequential(\n    (0): Flatten(start_dim=1, end_dim=-1)\n    (1): Dropout(p=0.25, inplace=False)\n    (2): Linear(in_features=32256, out_features=64, bias=True)\n    (3): ReLU()\n    (4): Dropout(p=0.25, inplace=False)\n    (5): Linear(in_features=64, out_features=32, bias=True)\n    (6): ReLU()\n    (7): Linear(in_features=32, out_features=7, bias=True)\n  )\n)"
}{
    "exp_name": "DropoutConvNet_SimpleBNConv 64 5 001 Adam weight F-dataset  20231012_022409",
    "model_architect": "DropoutConvNet(\n  (features): Sequential(\n    (0): Conv2d(3, 8, kernel_size=(3, 3), stride=(1, 1))\n    (1): ReLU()\n    (2): MaxPool2d(kernel_size=2, stride=2, padding=0, dilation=1, ceil_mode=False)\n    (3): Conv2d(8, 16, kernel_size=(3, 3), stride=(1, 1))\n    (4): ReLU()\n    (5): MaxPool2d(kernel_size=2, stride=2, padding=0, dilation=1, ceil_mode=False)\n    (6): Conv2d(16, 32, kernel_size=(3, 3), stride=(1, 1))\n    (7): ReLU()\n    (8): MaxPool2d(kernel_size=2, stride=2, padding=0, dilation=1, ceil_mode=False)\n    (9): Conv2d(32, 64, kernel_size=(3, 3), stride=(1, 1))\n    (10): ReLU()\n    (11): MaxPool2d(kernel_size=2, stride=2, padding=0, dilation=1, ceil_mode=False)\n    (12): Conv2d(64, 128, kernel_size=(3, 3), stride=(1, 1))\n    (13): ReLU()\n    (14): MaxPool2d(kernel_size=2, stride=2, padding=0, dilation=1, ceil_mode=False)\n  )\n  (seq): Sequential(\n    (0): Flatten(start_dim=1, end_dim=-1)\n    (1): Dropout(p=0.25, inplace=False)\n    (2): Linear(in_features=24576, out_features=64, bias=True)\n    (3): ReLU()\n    (4): Dropout(p=0.25, inplace=False)\n    (5): Linear(in_features=64, out_features=32, bias=True)\n    (6): ReLU()\n    (7): Linear(in_features=32, out_features=7, bias=True)\n  )\n)"
}{
    "exp_name": "DropoutBatchNormNet_SimpleBNConv 64 5 001 Adam weight F-dataset  20231012_022714",
    "model_architect": "DropoutBatchNormNet(\n  (features): Sequential(\n    (0): Conv2d(3, 8, kernel_size=(3, 3), stride=(1, 1))\n    (1): BatchNorm2d(8, eps=1e-05, momentum=0.1, affine=True, track_running_stats=True)\n    (2): ReLU()\n    (3): MaxPool2d(kernel_size=2, stride=2, padding=0, dilation=1, ceil_mode=False)\n    (4): Conv2d(8, 16, kernel_size=(3, 3), stride=(1, 1))\n    (5): BatchNorm2d(16, eps=1e-05, momentum=0.1, affine=True, track_running_stats=True)\n    (6): ReLU()\n    (7): MaxPool2d(kernel_size=2, stride=2, padding=0, dilation=1, ceil_mode=False)\n    (8): Conv2d(16, 32, kernel_size=(3, 3), stride=(1, 1))\n    (9): BatchNorm2d(32, eps=1e-05, momentum=0.1, affine=True, track_running_stats=True)\n    (10): ReLU()\n    (11): MaxPool2d(kernel_size=2, stride=2, padding=0, dilation=1, ceil_mode=False)\n    (12): Conv2d(32, 64, kernel_size=(3, 3), stride=(1, 1))\n    (13): BatchNorm2d(64, eps=1e-05, momentum=0.1, affine=True, track_running_stats=True)\n    (14): ReLU()\n    (15): MaxPool2d(kernel_size=2, stride=2, padding=0, dilation=1, ceil_mode=False)\n    (16): Conv2d(64, 128, kernel_size=(3, 3), stride=(1, 1))\n    (17): BatchNorm2d(128, eps=1e-05, momentum=0.1, affine=True, track_running_stats=True)\n    (18): ReLU()\n    (19): MaxPool2d(kernel_size=2, stride=2, padding=0, dilation=1, ceil_mode=False)\n  )\n  (seq): Sequential(\n    (0): Flatten(start_dim=1, end_dim=-1)\n    (1): Dropout(p=0.4, inplace=False)\n    (2): Linear(in_features=32256, out_features=64, bias=True)\n    (3): ReLU()\n    (4): Linear(in_features=64, out_features=32, bias=True)\n    (5): ReLU()\n    (6): Linear(in_features=32, out_features=7, bias=True)\n  )\n)"
}{
    "exp_name": "DropoutBatchNormNet_SimpleBNConv 64 5 001 Adam weight F-dataset  20231012_022814",
    "model_architect": "DropoutBatchNormNet(\n  (features): Sequential(\n    (0): Conv2d(3, 8, kernel_size=(3, 3), stride=(1, 1))\n    (1): BatchNorm2d(8, eps=1e-05, momentum=0.1, affine=True, track_running_stats=True)\n    (2): ReLU()\n    (3): MaxPool2d(kernel_size=2, stride=2, padding=0, dilation=1, ceil_mode=False)\n    (4): Conv2d(8, 16, kernel_size=(3, 3), stride=(1, 1))\n    (5): BatchNorm2d(16, eps=1e-05, momentum=0.1, affine=True, track_running_stats=True)\n    (6): ReLU()\n    (7): MaxPool2d(kernel_size=2, stride=2, padding=0, dilation=1, ceil_mode=False)\n    (8): Conv2d(16, 32, kernel_size=(3, 3), stride=(1, 1))\n    (9): BatchNorm2d(32, eps=1e-05, momentum=0.1, affine=True, track_running_stats=True)\n    (10): ReLU()\n    (11): MaxPool2d(kernel_size=2, stride=2, padding=0, dilation=1, ceil_mode=False)\n    (12): Conv2d(32, 64, kernel_size=(3, 3), stride=(1, 1))\n    (13): BatchNorm2d(64, eps=1e-05, momentum=0.1, affine=True, track_running_stats=True)\n    (14): ReLU()\n    (15): MaxPool2d(kernel_size=2, stride=2, padding=0, dilation=1, ceil_mode=False)\n    (16): Conv2d(64, 128, kernel_size=(3, 3), stride=(1, 1))\n    (17): BatchNorm2d(128, eps=1e-05, momentum=0.1, affine=True, track_running_stats=True)\n    (18): ReLU()\n    (19): MaxPool2d(kernel_size=2, stride=2, padding=0, dilation=1, ceil_mode=False)\n  )\n  (seq): Sequential(\n    (0): Flatten(start_dim=1, end_dim=-1)\n    (1): Dropout(p=0.4, inplace=False)\n    (2): Linear(in_features=24576, out_features=64, bias=True)\n    (3): ReLU()\n    (4): Linear(in_features=64, out_features=32, bias=True)\n    (5): ReLU()\n    (6): Linear(in_features=32, out_features=7, bias=True)\n  )\n)"
}{
    "exp_name": "DeepConvNet_SimpleBNConv 64 5 001 Adam weight F-dataset  20231012_023224",
    "model_architect": "DeepConvNet(\n  (features): Sequential(\n    (0): Conv2d(3, 8, kernel_size=(3, 3), stride=(2, 2), padding=(1, 1))\n    (1): ReLU()\n    (2): Conv2d(8, 16, kernel_size=(3, 3), stride=(2, 2), padding=(1, 1))\n    (3): ReLU()\n    (4): Conv2d(16, 32, kernel_size=(3, 3), stride=(2, 2), padding=(1, 1))\n    (5): ReLU()\n    (6): Conv2d(32, 64, kernel_size=(3, 3), stride=(2, 2), padding=(1, 1))\n    (7): ReLU()\n  )\n  (seq): Sequential(\n    (0): Flatten(start_dim=1, end_dim=-1)\n    (1): Linear(in_features=32256, out_features=64, bias=True)\n    (2): ReLU()\n    (3): Linear(in_features=64, out_features=32, bias=True)\n    (4): ReLU()\n    (5): Linear(in_features=32, out_features=7, bias=True)\n  )\n)"
}{
    "exp_name": "DeepConvNet_SimpleBNConv 64 5 001 Adam weight F-dataset  20231012_023328",
    "model_architect": "DeepConvNet(\n  (features): Sequential(\n    (0): Conv2d(3, 8, kernel_size=(3, 3), stride=(2, 2), padding=(1, 1))\n    (1): ReLU()\n    (2): Conv2d(8, 16, kernel_size=(3, 3), stride=(2, 2), padding=(1, 1))\n    (3): ReLU()\n    (4): Conv2d(16, 32, kernel_size=(3, 3), stride=(2, 2), padding=(1, 1))\n    (5): ReLU()\n    (6): Conv2d(32, 64, kernel_size=(3, 3), stride=(2, 2), padding=(1, 1))\n    (7): ReLU()\n  )\n  (seq): Sequential(\n    (0): Flatten(start_dim=1, end_dim=-1)\n    (1): Linear(in_features=70528, out_features=64, bias=True)\n    (2): ReLU()\n    (3): Linear(in_features=64, out_features=32, bias=True)\n    (4): ReLU()\n    (5): Linear(in_features=32, out_features=7, bias=True)\n  )\n)"
}{
    "exp_name": "DeepConvBatchNormNet_SimpleBNConv 64 5 001 Adam weight F-dataset  20231012_024608",
    "model_architect": "DeepConvBatchNormNet(\n  (features): Sequential(\n    (0): Conv2d(3, 8, kernel_size=(3, 3), stride=(2, 2), padding=(1, 1))\n    (1): BatchNorm2d(8, eps=1e-05, momentum=0.1, affine=True, track_running_stats=True)\n    (2): ReLU()\n    (3): Conv2d(8, 16, kernel_size=(3, 3), stride=(2, 2), padding=(1, 1))\n    (4): BatchNorm2d(16, eps=1e-05, momentum=0.1, affine=True, track_running_stats=True)\n    (5): ReLU()\n    (6): Conv2d(16, 32, kernel_size=(3, 3), stride=(2, 2), padding=(1, 1))\n    (7): BatchNorm2d(32, eps=1e-05, momentum=0.1, affine=True, track_running_stats=True)\n    (8): ReLU()\n    (9): Conv2d(32, 64, kernel_size=(3, 3), stride=(2, 2), padding=(1, 1))\n    (10): BatchNorm2d(64, eps=1e-05, momentum=0.1, affine=True, track_running_stats=True)\n    (11): ReLU()\n  )\n  (seq): Sequential(\n    (0): Flatten(start_dim=1, end_dim=-1)\n    (1): Linear(in_features=32256, out_features=64, bias=True)\n    (2): ReLU()\n    (3): Linear(in_features=64, out_features=32, bias=True)\n    (4): ReLU()\n    (5): Linear(in_features=32, out_features=7, bias=True)\n  )\n)"
}{
    "exp_name": "DeepConvBatchNormNet_SimpleBNConv 64 5 001 Adam weight F-dataset  20231012_025019",
    "model_architect": "DeepConvBatchNormNet(\n  (features): Sequential(\n    (0): Conv2d(3, 8, kernel_size=(3, 3), stride=(2, 2), padding=(1, 1))\n    (1): BatchNorm2d(8, eps=1e-05, momentum=0.1, affine=True, track_running_stats=True)\n    (2): ReLU()\n    (3): Conv2d(8, 16, kernel_size=(3, 3), stride=(2, 2), padding=(1, 1))\n    (4): BatchNorm2d(16, eps=1e-05, momentum=0.1, affine=True, track_running_stats=True)\n    (5): ReLU()\n    (6): Conv2d(16, 32, kernel_size=(3, 3), stride=(2, 2), padding=(1, 1))\n    (7): BatchNorm2d(32, eps=1e-05, momentum=0.1, affine=True, track_running_stats=True)\n    (8): ReLU()\n    (9): Conv2d(32, 64, kernel_size=(3, 3), stride=(2, 2), padding=(1, 1))\n    (10): BatchNorm2d(64, eps=1e-05, momentum=0.1, affine=True, track_running_stats=True)\n    (11): ReLU()\n  )\n  (seq): Sequential(\n    (0): Flatten(start_dim=1, end_dim=-1)\n    (1): Linear(in_features=70528, out_features=64, bias=True)\n    (2): ReLU()\n    (3): Linear(in_features=64, out_features=32, bias=True)\n    (4): ReLU()\n    (5): Linear(in_features=32, out_features=7, bias=True)\n  )\n)"
}{
    "exp_name": "SkipNet_SimpleBNConv 64 5 001 Adam weight F-dataset  20231012_025814",
    "model_architect": "SkipNet(\n  (features): Sequential(\n    (0): SkipBlock(\n      (layer1): Sequential(\n        (0): Conv2d(3, 8, kernel_size=(3, 3), stride=(1, 1), padding=(1, 1))\n        (1): ReLU()\n      )\n      (layer2): Sequential(\n        (0): Conv2d(8, 8, kernel_size=(3, 3), stride=(1, 1), padding=(1, 1))\n        (1): ReLU()\n      )\n    )\n    (1): SkipBlock(\n      (layer1): Sequential(\n        (0): Conv2d(8, 16, kernel_size=(3, 3), stride=(1, 1), padding=(1, 1))\n        (1): ReLU()\n      )\n      (layer2): Sequential(\n        (0): Conv2d(16, 16, kernel_size=(3, 3), stride=(1, 1), padding=(1, 1))\n        (1): ReLU()\n      )\n    )\n    (2): SkipBlock(\n      (layer1): Sequential(\n        (0): Conv2d(16, 32, kernel_size=(3, 3), stride=(1, 1), padding=(1, 1))\n        (1): ReLU()\n      )\n      (layer2): Sequential(\n        (0): Conv2d(32, 32, kernel_size=(3, 3), stride=(1, 1), padding=(1, 1))\n        (1): ReLU()\n      )\n    )\n    (3): SkipBlock(\n      (layer1): Sequential(\n        (0): Conv2d(32, 64, kernel_size=(3, 3), stride=(1, 1), padding=(1, 1))\n        (1): ReLU()\n      )\n      (layer2): Sequential(\n        (0): Conv2d(64, 64, kernel_size=(3, 3), stride=(1, 1), padding=(1, 1))\n        (1): ReLU()\n      )\n    )\n  )\n  (seq): Sequential(\n    (0): Flatten(start_dim=1, end_dim=-1)\n    (1): Linear(in_features=32256, out_features=64, bias=True)\n    (2): ReLU()\n    (3): Linear(in_features=64, out_features=32, bias=True)\n    (4): ReLU()\n    (5): Linear(in_features=32, out_features=7, bias=True)\n  )\n)"
}{
    "exp_name": "SkipNet_SimpleBNConv 64 5 001 Adam weight F-dataset  20231012_025906",
    "model_architect": "SkipNet(\n  (features): Sequential(\n    (0): SkipBlock(\n      (layer1): Sequential(\n        (0): Conv2d(3, 8, kernel_size=(3, 3), stride=(1, 1), padding=(1, 1))\n        (1): ReLU()\n      )\n      (layer2): Sequential(\n        (0): Conv2d(8, 8, kernel_size=(3, 3), stride=(1, 1), padding=(1, 1))\n        (1): ReLU()\n      )\n    )\n    (1): SkipBlock(\n      (layer1): Sequential(\n        (0): Conv2d(8, 16, kernel_size=(3, 3), stride=(1, 1), padding=(1, 1))\n        (1): ReLU()\n      )\n      (layer2): Sequential(\n        (0): Conv2d(16, 16, kernel_size=(3, 3), stride=(1, 1), padding=(1, 1))\n        (1): ReLU()\n      )\n    )\n    (2): SkipBlock(\n      (layer1): Sequential(\n        (0): Conv2d(16, 32, kernel_size=(3, 3), stride=(1, 1), padding=(1, 1))\n        (1): ReLU()\n      )\n      (layer2): Sequential(\n        (0): Conv2d(32, 32, kernel_size=(3, 3), stride=(1, 1), padding=(1, 1))\n        (1): ReLU()\n      )\n    )\n    (3): SkipBlock(\n      (layer1): Sequential(\n        (0): Conv2d(32, 64, kernel_size=(3, 3), stride=(1, 1), padding=(1, 1))\n        (1): ReLU()\n      )\n      (layer2): Sequential(\n        (0): Conv2d(64, 64, kernel_size=(3, 3), stride=(1, 1), padding=(1, 1))\n        (1): ReLU()\n      )\n    )\n  )\n  (seq): Sequential(\n    (0): Flatten(start_dim=1, end_dim=-1)\n    (1): Linear(in_features=32256, out_features=64, bias=True)\n    (2): ReLU()\n    (3): Linear(in_features=64, out_features=32, bias=True)\n    (4): ReLU()\n    (5): Linear(in_features=32, out_features=7, bias=True)\n  )\n)"
}{
    "exp_name": "SkipNet_SimpleBNConv 64 5 001 Adam weight F-dataset  20231012_025939",
    "model_architect": "SkipNet(\n  (features): Sequential(\n    (0): SkipBlock(\n      (layer1): Sequential(\n        (0): Conv2d(3, 8, kernel_size=(3, 3), stride=(1, 1), padding=(1, 1))\n        (1): ReLU()\n      )\n      (layer2): Sequential(\n        (0): Conv2d(8, 8, kernel_size=(3, 3), stride=(1, 1), padding=(1, 1))\n        (1): ReLU()\n      )\n    )\n    (1): SkipBlock(\n      (layer1): Sequential(\n        (0): Conv2d(8, 16, kernel_size=(3, 3), stride=(1, 1), padding=(1, 1))\n        (1): ReLU()\n      )\n      (layer2): Sequential(\n        (0): Conv2d(16, 16, kernel_size=(3, 3), stride=(1, 1), padding=(1, 1))\n        (1): ReLU()\n      )\n    )\n    (2): SkipBlock(\n      (layer1): Sequential(\n        (0): Conv2d(16, 32, kernel_size=(3, 3), stride=(1, 1), padding=(1, 1))\n        (1): ReLU()\n      )\n      (layer2): Sequential(\n        (0): Conv2d(32, 32, kernel_size=(3, 3), stride=(1, 1), padding=(1, 1))\n        (1): ReLU()\n      )\n    )\n  )\n  (seq): Sequential(\n    (0): Flatten(start_dim=1, end_dim=-1)\n    (1): Linear(in_features=32256, out_features=64, bias=True)\n    (2): ReLU()\n    (3): Linear(in_features=64, out_features=32, bias=True)\n    (4): ReLU()\n    (5): Linear(in_features=32, out_features=7, bias=True)\n  )\n)"
}{
    "exp_name": "SkipNet_SimpleBNConv 64 5 001 Adam weight F-dataset  20231012_030418",
    "model_architect": "SkipNet(\n  (features): Sequential(\n    (0): SkipBlock(\n      (layer1): Sequential(\n        (0): Conv2d(3, 8, kernel_size=(3, 3), stride=(1, 1), padding=(1, 1))\n        (1): ReLU()\n      )\n      (layer2): Sequential(\n        (0): Conv2d(8, 8, kernel_size=(3, 3), stride=(1, 1), padding=(1, 1))\n        (1): ReLU()\n      )\n    )\n    (1): SkipBlock(\n      (layer1): Sequential(\n        (0): Conv2d(8, 16, kernel_size=(3, 3), stride=(1, 1), padding=(1, 1))\n        (1): ReLU()\n      )\n      (layer2): Sequential(\n        (0): Conv2d(16, 16, kernel_size=(3, 3), stride=(1, 1), padding=(1, 1))\n        (1): ReLU()\n      )\n    )\n    (2): SkipBlock(\n      (layer1): Sequential(\n        (0): Conv2d(16, 32, kernel_size=(3, 3), stride=(1, 1), padding=(1, 1))\n        (1): ReLU()\n      )\n      (layer2): Sequential(\n        (0): Conv2d(32, 32, kernel_size=(3, 3), stride=(1, 1), padding=(1, 1))\n        (1): ReLU()\n      )\n    )\n  )\n  (seq): Sequential(\n    (0): Flatten(start_dim=1, end_dim=-1)\n    (1): Linear(in_features=32256, out_features=64, bias=True)\n    (2): ReLU()\n    (3): Linear(in_features=64, out_features=32, bias=True)\n    (4): ReLU()\n    (5): Linear(in_features=32, out_features=7, bias=True)\n  )\n)"
}{
    "exp_name": "SkipNet_SimpleBNConv 64 5 001 Adam weight F-dataset  20231012_030609",
    "model_architect": "SkipNet(\n  (features): Sequential(\n    (0): SkipBlock(\n      (layer1): Sequential(\n        (0): Conv2d(3, 8, kernel_size=(3, 3), stride=(1, 1), padding=(1, 1))\n        (1): ReLU()\n      )\n      (layer2): Sequential(\n        (0): Conv2d(8, 8, kernel_size=(3, 3), stride=(1, 1), padding=(1, 1))\n        (1): ReLU()\n      )\n    )\n    (1): MaxPool2d(kernel_size=2, stride=2, padding=0, dilation=1, ceil_mode=False)\n    (2): SkipBlock(\n      (layer1): Sequential(\n        (0): Conv2d(8, 16, kernel_size=(3, 3), stride=(1, 1), padding=(1, 1))\n        (1): ReLU()\n      )\n      (layer2): Sequential(\n        (0): Conv2d(16, 16, kernel_size=(3, 3), stride=(1, 1), padding=(1, 1))\n        (1): ReLU()\n      )\n    )\n    (3): MaxPool2d(kernel_size=2, stride=2, padding=0, dilation=1, ceil_mode=False)\n    (4): SkipBlock(\n      (layer1): Sequential(\n        (0): Conv2d(16, 32, kernel_size=(3, 3), stride=(1, 1), padding=(1, 1))\n        (1): ReLU()\n      )\n      (layer2): Sequential(\n        (0): Conv2d(32, 32, kernel_size=(3, 3), stride=(1, 1), padding=(1, 1))\n        (1): ReLU()\n      )\n    )\n    (5): MaxPool2d(kernel_size=2, stride=2, padding=0, dilation=1, ceil_mode=False)\n  )\n  (seq): Sequential(\n    (0): Flatten(start_dim=1, end_dim=-1)\n    (1): Linear(in_features=32256, out_features=64, bias=True)\n    (2): ReLU()\n    (3): Linear(in_features=64, out_features=32, bias=True)\n    (4): ReLU()\n    (5): Linear(in_features=32, out_features=7, bias=True)\n  )\n)"
}{
    "exp_name": "SkipNet_SimpleBNConv 64 5 001 Adam weight F-dataset  20231012_030651",
    "model_architect": "SkipNet(\n  (features): Sequential(\n    (0): SkipBlock(\n      (layer1): Sequential(\n        (0): Conv2d(3, 8, kernel_size=(3, 3), stride=(1, 1), padding=(1, 1))\n        (1): ReLU()\n      )\n      (layer2): Sequential(\n        (0): Conv2d(8, 8, kernel_size=(3, 3), stride=(1, 1), padding=(1, 1))\n        (1): ReLU()\n      )\n    )\n    (1): MaxPool2d(kernel_size=2, stride=2, padding=0, dilation=1, ceil_mode=False)\n    (2): SkipBlock(\n      (layer1): Sequential(\n        (0): Conv2d(8, 16, kernel_size=(3, 3), stride=(1, 1), padding=(1, 1))\n        (1): ReLU()\n      )\n      (layer2): Sequential(\n        (0): Conv2d(16, 16, kernel_size=(3, 3), stride=(1, 1), padding=(1, 1))\n        (1): ReLU()\n      )\n    )\n    (3): MaxPool2d(kernel_size=2, stride=2, padding=0, dilation=1, ceil_mode=False)\n    (4): SkipBlock(\n      (layer1): Sequential(\n        (0): Conv2d(16, 32, kernel_size=(3, 3), stride=(1, 1), padding=(1, 1))\n        (1): ReLU()\n      )\n      (layer2): Sequential(\n        (0): Conv2d(32, 32, kernel_size=(3, 3), stride=(1, 1), padding=(1, 1))\n        (1): ReLU()\n      )\n    )\n    (5): MaxPool2d(kernel_size=2, stride=2, padding=0, dilation=1, ceil_mode=False)\n  )\n  (seq): Sequential(\n    (0): Flatten(start_dim=1, end_dim=-1)\n    (1): Linear(in_features=32256, out_features=64, bias=True)\n    (2): ReLU()\n    (3): Linear(in_features=64, out_features=32, bias=True)\n    (4): ReLU()\n    (5): Linear(in_features=32, out_features=7, bias=True)\n  )\n)"
}{
    "exp_name": "SkipNet_SimpleBNConv 64 5 001 Adam weight F-dataset  20231012_030732",
    "model_architect": "SkipNet(\n  (features): Sequential(\n    (0): SkipBlock(\n      (layer1): Sequential(\n        (0): Conv2d(3, 8, kernel_size=(3, 3), stride=(1, 1), padding=(1, 1))\n        (1): ReLU()\n      )\n      (layer2): Sequential(\n        (0): Conv2d(8, 8, kernel_size=(3, 3), stride=(1, 1), padding=(1, 1))\n        (1): ReLU()\n      )\n    )\n    (1): MaxPool2d(kernel_size=2, stride=2, padding=0, dilation=1, ceil_mode=False)\n    (2): SkipBlock(\n      (layer1): Sequential(\n        (0): Conv2d(8, 16, kernel_size=(3, 3), stride=(1, 1), padding=(1, 1))\n        (1): ReLU()\n      )\n      (layer2): Sequential(\n        (0): Conv2d(16, 16, kernel_size=(3, 3), stride=(1, 1), padding=(1, 1))\n        (1): ReLU()\n      )\n    )\n    (3): MaxPool2d(kernel_size=2, stride=2, padding=0, dilation=1, ceil_mode=False)\n    (4): SkipBlock(\n      (layer1): Sequential(\n        (0): Conv2d(16, 32, kernel_size=(3, 3), stride=(1, 1), padding=(1, 1))\n        (1): ReLU()\n      )\n      (layer2): Sequential(\n        (0): Conv2d(32, 32, kernel_size=(3, 3), stride=(1, 1), padding=(1, 1))\n        (1): ReLU()\n      )\n    )\n    (5): MaxPool2d(kernel_size=2, stride=2, padding=0, dilation=1, ceil_mode=False)\n  )\n  (seq): Sequential(\n    (0): Flatten(start_dim=1, end_dim=-1)\n    (1): Linear(in_features=134400, out_features=64, bias=True)\n    (2): ReLU()\n    (3): Linear(in_features=64, out_features=32, bias=True)\n    (4): ReLU()\n    (5): Linear(in_features=32, out_features=7, bias=True)\n  )\n)"
}{
    "exp_name": "SimpleBNConv_SimpleBNConv 64 5 001 Adam weight F-dataset  20231012_032107",
    "model_architect": "SimpleBNConv(\n  (features): Sequential(\n    (0): Conv2d(3, 8, kernel_size=(3, 3), stride=(1, 1), padding=(1, 1))\n    (1): BatchNorm2d(8, eps=1e-05, momentum=0.1, affine=True, track_running_stats=True)\n    (2): ReLU()\n    (3): MaxPool2d(kernel_size=2, stride=2, padding=0, dilation=1, ceil_mode=False)\n    (4): Conv2d(8, 16, kernel_size=(3, 3), stride=(1, 1), padding=(1, 1))\n    (5): BatchNorm2d(16, eps=1e-05, momentum=0.1, affine=True, track_running_stats=True)\n    (6): ReLU()\n    (7): MaxPool2d(kernel_size=2, stride=2, padding=0, dilation=1, ceil_mode=False)\n    (8): Conv2d(16, 32, kernel_size=(3, 3), stride=(1, 1), padding=(1, 1))\n    (9): BatchNorm2d(32, eps=1e-05, momentum=0.1, affine=True, track_running_stats=True)\n    (10): ReLU()\n    (11): MaxPool2d(kernel_size=2, stride=2, padding=0, dilation=1, ceil_mode=False)\n    (12): Conv2d(32, 64, kernel_size=(3, 3), stride=(1, 1), padding=(1, 1))\n    (13): BatchNorm2d(64, eps=1e-05, momentum=0.1, affine=True, track_running_stats=True)\n    (14): ReLU()\n    (15): MaxPool2d(kernel_size=2, stride=2, padding=0, dilation=1, ceil_mode=False)\n    (16): Conv2d(64, 128, kernel_size=(3, 3), stride=(1, 1), padding=(1, 1))\n    (17): BatchNorm2d(128, eps=1e-05, momentum=0.1, affine=True, track_running_stats=True)\n    (18): ReLU()\n    (19): MaxPool2d(kernel_size=2, stride=2, padding=0, dilation=1, ceil_mode=False)\n  )\n  (seq): Sequential(\n    (0): Flatten(start_dim=1, end_dim=-1)\n    (1): Linear(in_features=32256, out_features=64, bias=True)\n    (2): ReLU()\n    (3): Linear(in_features=64, out_features=32, bias=True)\n    (4): ReLU()\n    (5): Linear(in_features=32, out_features=7, bias=True)\n  )\n)"
}{
    "exp_name": "ResNet_SimpleBNConv 64 5 001 Adam weight F-dataset  20231012_035105",
    "model_architect": "ResNet(\n  (conv1): Conv2d(3, 64, kernel_size=(7, 7), stride=(2, 2), padding=(3, 3), bias=False)\n  (bn1): BatchNorm2d(64, eps=1e-05, momentum=0.1, affine=True, track_running_stats=True)\n  (relu): ReLU(inplace=True)\n  (maxpool): MaxPool2d(kernel_size=3, stride=2, padding=1, dilation=1, ceil_mode=False)\n  (layer1): Sequential(\n    (0): BasicBlock(\n      (conv1): Conv2d(64, 64, kernel_size=(3, 3), stride=(1, 1), padding=(1, 1), bias=False)\n      (bn1): BatchNorm2d(64, eps=1e-05, momentum=0.1, affine=True, track_running_stats=True)\n      (relu): ReLU(inplace=True)\n      (conv2): Conv2d(64, 64, kernel_size=(3, 3), stride=(1, 1), padding=(1, 1), bias=False)\n      (bn2): BatchNorm2d(64, eps=1e-05, momentum=0.1, affine=True, track_running_stats=True)\n    )\n    (1): BasicBlock(\n      (conv1): Conv2d(64, 64, kernel_size=(3, 3), stride=(1, 1), padding=(1, 1), bias=False)\n      (bn1): BatchNorm2d(64, eps=1e-05, momentum=0.1, affine=True, track_running_stats=True)\n      (relu): ReLU(inplace=True)\n      (conv2): Conv2d(64, 64, kernel_size=(3, 3), stride=(1, 1), padding=(1, 1), bias=False)\n      (bn2): BatchNorm2d(64, eps=1e-05, momentum=0.1, affine=True, track_running_stats=True)\n    )\n  )\n  (layer2): Sequential(\n    (0): BasicBlock(\n      (conv1): Conv2d(64, 128, kernel_size=(3, 3), stride=(2, 2), padding=(1, 1), bias=False)\n      (bn1): BatchNorm2d(128, eps=1e-05, momentum=0.1, affine=True, track_running_stats=True)\n      (relu): ReLU(inplace=True)\n      (conv2): Conv2d(128, 128, kernel_size=(3, 3), stride=(1, 1), padding=(1, 1), bias=False)\n      (bn2): BatchNorm2d(128, eps=1e-05, momentum=0.1, affine=True, track_running_stats=True)\n      (downsample): Sequential(\n        (0): Conv2d(64, 128, kernel_size=(1, 1), stride=(2, 2), bias=False)\n        (1): BatchNorm2d(128, eps=1e-05, momentum=0.1, affine=True, track_running_stats=True)\n      )\n    )\n    (1): BasicBlock(\n      (conv1): Conv2d(128, 128, kernel_size=(3, 3), stride=(1, 1), padding=(1, 1), bias=False)\n      (bn1): BatchNorm2d(128, eps=1e-05, momentum=0.1, affine=True, track_running_stats=True)\n      (relu): ReLU(inplace=True)\n      (conv2): Conv2d(128, 128, kernel_size=(3, 3), stride=(1, 1), padding=(1, 1), bias=False)\n      (bn2): BatchNorm2d(128, eps=1e-05, momentum=0.1, affine=True, track_running_stats=True)\n    )\n  )\n  (layer3): Sequential(\n    (0): BasicBlock(\n      (conv1): Conv2d(128, 256, kernel_size=(3, 3), stride=(2, 2), padding=(1, 1), bias=False)\n      (bn1): BatchNorm2d(256, eps=1e-05, momentum=0.1, affine=True, track_running_stats=True)\n      (relu): ReLU(inplace=True)\n      (conv2): Conv2d(256, 256, kernel_size=(3, 3), stride=(1, 1), padding=(1, 1), bias=False)\n      (bn2): BatchNorm2d(256, eps=1e-05, momentum=0.1, affine=True, track_running_stats=True)\n      (downsample): Sequential(\n        (0): Conv2d(128, 256, kernel_size=(1, 1), stride=(2, 2), bias=False)\n        (1): BatchNorm2d(256, eps=1e-05, momentum=0.1, affine=True, track_running_stats=True)\n      )\n    )\n    (1): BasicBlock(\n      (conv1): Conv2d(256, 256, kernel_size=(3, 3), stride=(1, 1), padding=(1, 1), bias=False)\n      (bn1): BatchNorm2d(256, eps=1e-05, momentum=0.1, affine=True, track_running_stats=True)\n      (relu): ReLU(inplace=True)\n      (conv2): Conv2d(256, 256, kernel_size=(3, 3), stride=(1, 1), padding=(1, 1), bias=False)\n      (bn2): BatchNorm2d(256, eps=1e-05, momentum=0.1, affine=True, track_running_stats=True)\n    )\n  )\n  (layer4): Sequential(\n    (0): BasicBlock(\n      (conv1): Conv2d(256, 512, kernel_size=(3, 3), stride=(2, 2), padding=(1, 1), bias=False)\n      (bn1): BatchNorm2d(512, eps=1e-05, momentum=0.1, affine=True, track_running_stats=True)\n      (relu): ReLU(inplace=True)\n      (conv2): Conv2d(512, 512, kernel_size=(3, 3), stride=(1, 1), padding=(1, 1), bias=False)\n      (bn2): BatchNorm2d(512, eps=1e-05, momentum=0.1, affine=True, track_running_stats=True)\n      (downsample): Sequential(\n        (0): Conv2d(256, 512, kernel_size=(1, 1), stride=(2, 2), bias=False)\n        (1): BatchNorm2d(512, eps=1e-05, momentum=0.1, affine=True, track_running_stats=True)\n      )\n    )\n    (1): BasicBlock(\n      (conv1): Conv2d(512, 512, kernel_size=(3, 3), stride=(1, 1), padding=(1, 1), bias=False)\n      (bn1): BatchNorm2d(512, eps=1e-05, momentum=0.1, affine=True, track_running_stats=True)\n      (relu): ReLU(inplace=True)\n      (conv2): Conv2d(512, 512, kernel_size=(3, 3), stride=(1, 1), padding=(1, 1), bias=False)\n      (bn2): BatchNorm2d(512, eps=1e-05, momentum=0.1, affine=True, track_running_stats=True)\n    )\n  )\n  (avgpool): AdaptiveAvgPool2d(output_size=(1, 1))\n  (fc): Linear(in_features=512, out_features=7, bias=True)\n)"
}{
    "exp_name": "DropoutConvNet_SimpleBNConv 64 5 001 Adam weight F-dataset  20231012_040027",
    "model_architect": "DropoutConvNet(\n  (features): Sequential(\n    (0): Conv2d(3, 8, kernel_size=(3, 3), stride=(1, 1))\n    (1): ReLU()\n    (2): MaxPool2d(kernel_size=2, stride=2, padding=0, dilation=1, ceil_mode=False)\n    (3): Conv2d(8, 16, kernel_size=(3, 3), stride=(1, 1))\n    (4): ReLU()\n    (5): MaxPool2d(kernel_size=2, stride=2, padding=0, dilation=1, ceil_mode=False)\n    (6): Conv2d(16, 32, kernel_size=(3, 3), stride=(1, 1))\n    (7): ReLU()\n    (8): MaxPool2d(kernel_size=2, stride=2, padding=0, dilation=1, ceil_mode=False)\n    (9): Conv2d(32, 64, kernel_size=(3, 3), stride=(1, 1))\n    (10): ReLU()\n    (11): MaxPool2d(kernel_size=2, stride=2, padding=0, dilation=1, ceil_mode=False)\n    (12): Conv2d(64, 128, kernel_size=(3, 3), stride=(1, 1))\n    (13): ReLU()\n    (14): MaxPool2d(kernel_size=2, stride=2, padding=0, dilation=1, ceil_mode=False)\n  )\n  (seq): Sequential(\n    (0): Flatten(start_dim=1, end_dim=-1)\n    (1): Dropout(p=0.25, inplace=False)\n    (2): Linear(in_features=24576, out_features=64, bias=True)\n    (3): ReLU()\n    (4): Dropout(p=0.25, inplace=False)\n    (5): Linear(in_features=64, out_features=32, bias=True)\n    (6): ReLU()\n    (7): Linear(in_features=32, out_features=7, bias=True)\n  )\n)"
}{
    "exp_name": "SimpleBNConv_64 5 001 Adam  20231012_042046",
    "model_architect": "SimpleBNConv(\n  (features): Sequential(\n    (0): Conv2d(3, 8, kernel_size=(3, 3), stride=(1, 1), padding=(1, 1))\n    (1): BatchNorm2d(8, eps=1e-05, momentum=0.1, affine=True, track_running_stats=True)\n    (2): ReLU()\n    (3): MaxPool2d(kernel_size=2, stride=2, padding=0, dilation=1, ceil_mode=False)\n    (4): Conv2d(8, 16, kernel_size=(3, 3), stride=(1, 1), padding=(1, 1))\n    (5): BatchNorm2d(16, eps=1e-05, momentum=0.1, affine=True, track_running_stats=True)\n    (6): ReLU()\n    (7): MaxPool2d(kernel_size=2, stride=2, padding=0, dilation=1, ceil_mode=False)\n    (8): Conv2d(16, 32, kernel_size=(3, 3), stride=(1, 1), padding=(1, 1))\n    (9): BatchNorm2d(32, eps=1e-05, momentum=0.1, affine=True, track_running_stats=True)\n    (10): ReLU()\n    (11): MaxPool2d(kernel_size=2, stride=2, padding=0, dilation=1, ceil_mode=False)\n    (12): Conv2d(32, 64, kernel_size=(3, 3), stride=(1, 1), padding=(1, 1))\n    (13): BatchNorm2d(64, eps=1e-05, momentum=0.1, affine=True, track_running_stats=True)\n    (14): ReLU()\n    (15): MaxPool2d(kernel_size=2, stride=2, padding=0, dilation=1, ceil_mode=False)\n    (16): Conv2d(64, 128, kernel_size=(3, 3), stride=(1, 1), padding=(1, 1))\n    (17): BatchNorm2d(128, eps=1e-05, momentum=0.1, affine=True, track_running_stats=True)\n    (18): ReLU()\n    (19): MaxPool2d(kernel_size=2, stride=2, padding=0, dilation=1, ceil_mode=False)\n  )\n  (seq): Sequential(\n    (0): Flatten(start_dim=1, end_dim=-1)\n    (1): Linear(in_features=32256, out_features=64, bias=True)\n    (2): ReLU()\n    (3): Linear(in_features=64, out_features=32, bias=True)\n    (4): ReLU()\n    (5): Linear(in_features=32, out_features=7, bias=True)\n  )\n)"
}{
    "exp_name": "ResNet_64 5 001 Adam  20231012_042943",
    "model_architect": "ResNet(\n  (conv1): Conv2d(3, 64, kernel_size=(7, 7), stride=(2, 2), padding=(3, 3), bias=False)\n  (bn1): BatchNorm2d(64, eps=1e-05, momentum=0.1, affine=True, track_running_stats=True)\n  (relu): ReLU(inplace=True)\n  (maxpool): MaxPool2d(kernel_size=3, stride=2, padding=1, dilation=1, ceil_mode=False)\n  (layer1): Sequential(\n    (0): BasicBlock(\n      (conv1): Conv2d(64, 64, kernel_size=(3, 3), stride=(1, 1), padding=(1, 1), bias=False)\n      (bn1): BatchNorm2d(64, eps=1e-05, momentum=0.1, affine=True, track_running_stats=True)\n      (relu): ReLU(inplace=True)\n      (conv2): Conv2d(64, 64, kernel_size=(3, 3), stride=(1, 1), padding=(1, 1), bias=False)\n      (bn2): BatchNorm2d(64, eps=1e-05, momentum=0.1, affine=True, track_running_stats=True)\n    )\n    (1): BasicBlock(\n      (conv1): Conv2d(64, 64, kernel_size=(3, 3), stride=(1, 1), padding=(1, 1), bias=False)\n      (bn1): BatchNorm2d(64, eps=1e-05, momentum=0.1, affine=True, track_running_stats=True)\n      (relu): ReLU(inplace=True)\n      (conv2): Conv2d(64, 64, kernel_size=(3, 3), stride=(1, 1), padding=(1, 1), bias=False)\n      (bn2): BatchNorm2d(64, eps=1e-05, momentum=0.1, affine=True, track_running_stats=True)\n    )\n  )\n  (layer2): Sequential(\n    (0): BasicBlock(\n      (conv1): Conv2d(64, 128, kernel_size=(3, 3), stride=(2, 2), padding=(1, 1), bias=False)\n      (bn1): BatchNorm2d(128, eps=1e-05, momentum=0.1, affine=True, track_running_stats=True)\n      (relu): ReLU(inplace=True)\n      (conv2): Conv2d(128, 128, kernel_size=(3, 3), stride=(1, 1), padding=(1, 1), bias=False)\n      (bn2): BatchNorm2d(128, eps=1e-05, momentum=0.1, affine=True, track_running_stats=True)\n      (downsample): Sequential(\n        (0): Conv2d(64, 128, kernel_size=(1, 1), stride=(2, 2), bias=False)\n        (1): BatchNorm2d(128, eps=1e-05, momentum=0.1, affine=True, track_running_stats=True)\n      )\n    )\n    (1): BasicBlock(\n      (conv1): Conv2d(128, 128, kernel_size=(3, 3), stride=(1, 1), padding=(1, 1), bias=False)\n      (bn1): BatchNorm2d(128, eps=1e-05, momentum=0.1, affine=True, track_running_stats=True)\n      (relu): ReLU(inplace=True)\n      (conv2): Conv2d(128, 128, kernel_size=(3, 3), stride=(1, 1), padding=(1, 1), bias=False)\n      (bn2): BatchNorm2d(128, eps=1e-05, momentum=0.1, affine=True, track_running_stats=True)\n    )\n  )\n  (layer3): Sequential(\n    (0): BasicBlock(\n      (conv1): Conv2d(128, 256, kernel_size=(3, 3), stride=(2, 2), padding=(1, 1), bias=False)\n      (bn1): BatchNorm2d(256, eps=1e-05, momentum=0.1, affine=True, track_running_stats=True)\n      (relu): ReLU(inplace=True)\n      (conv2): Conv2d(256, 256, kernel_size=(3, 3), stride=(1, 1), padding=(1, 1), bias=False)\n      (bn2): BatchNorm2d(256, eps=1e-05, momentum=0.1, affine=True, track_running_stats=True)\n      (downsample): Sequential(\n        (0): Conv2d(128, 256, kernel_size=(1, 1), stride=(2, 2), bias=False)\n        (1): BatchNorm2d(256, eps=1e-05, momentum=0.1, affine=True, track_running_stats=True)\n      )\n    )\n    (1): BasicBlock(\n      (conv1): Conv2d(256, 256, kernel_size=(3, 3), stride=(1, 1), padding=(1, 1), bias=False)\n      (bn1): BatchNorm2d(256, eps=1e-05, momentum=0.1, affine=True, track_running_stats=True)\n      (relu): ReLU(inplace=True)\n      (conv2): Conv2d(256, 256, kernel_size=(3, 3), stride=(1, 1), padding=(1, 1), bias=False)\n      (bn2): BatchNorm2d(256, eps=1e-05, momentum=0.1, affine=True, track_running_stats=True)\n    )\n  )\n  (layer4): Sequential(\n    (0): BasicBlock(\n      (conv1): Conv2d(256, 512, kernel_size=(3, 3), stride=(2, 2), padding=(1, 1), bias=False)\n      (bn1): BatchNorm2d(512, eps=1e-05, momentum=0.1, affine=True, track_running_stats=True)\n      (relu): ReLU(inplace=True)\n      (conv2): Conv2d(512, 512, kernel_size=(3, 3), stride=(1, 1), padding=(1, 1), bias=False)\n      (bn2): BatchNorm2d(512, eps=1e-05, momentum=0.1, affine=True, track_running_stats=True)\n      (downsample): Sequential(\n        (0): Conv2d(256, 512, kernel_size=(1, 1), stride=(2, 2), bias=False)\n        (1): BatchNorm2d(512, eps=1e-05, momentum=0.1, affine=True, track_running_stats=True)\n      )\n    )\n    (1): BasicBlock(\n      (conv1): Conv2d(512, 512, kernel_size=(3, 3), stride=(1, 1), padding=(1, 1), bias=False)\n      (bn1): BatchNorm2d(512, eps=1e-05, momentum=0.1, affine=True, track_running_stats=True)\n      (relu): ReLU(inplace=True)\n      (conv2): Conv2d(512, 512, kernel_size=(3, 3), stride=(1, 1), padding=(1, 1), bias=False)\n      (bn2): BatchNorm2d(512, eps=1e-05, momentum=0.1, affine=True, track_running_stats=True)\n    )\n  )\n  (avgpool): AdaptiveAvgPool2d(output_size=(1, 1))\n  (fc): Linear(in_features=512, out_features=7, bias=True)\n)"
}{
    "exp_name": "DropoutConvNet_64 5 001 Adam  20231012_043907",
    "model_architect": "DropoutConvNet(\n  (features): Sequential(\n    (0): Conv2d(3, 8, kernel_size=(3, 3), stride=(1, 1))\n    (1): ReLU()\n    (2): MaxPool2d(kernel_size=2, stride=2, padding=0, dilation=1, ceil_mode=False)\n    (3): Conv2d(8, 16, kernel_size=(3, 3), stride=(1, 1))\n    (4): ReLU()\n    (5): MaxPool2d(kernel_size=2, stride=2, padding=0, dilation=1, ceil_mode=False)\n    (6): Conv2d(16, 32, kernel_size=(3, 3), stride=(1, 1))\n    (7): ReLU()\n    (8): MaxPool2d(kernel_size=2, stride=2, padding=0, dilation=1, ceil_mode=False)\n    (9): Conv2d(32, 64, kernel_size=(3, 3), stride=(1, 1))\n    (10): ReLU()\n    (11): MaxPool2d(kernel_size=2, stride=2, padding=0, dilation=1, ceil_mode=False)\n    (12): Conv2d(64, 128, kernel_size=(3, 3), stride=(1, 1))\n    (13): ReLU()\n    (14): MaxPool2d(kernel_size=2, stride=2, padding=0, dilation=1, ceil_mode=False)\n  )\n  (seq): Sequential(\n    (0): Flatten(start_dim=1, end_dim=-1)\n    (1): Dropout(p=0.25, inplace=False)\n    (2): Linear(in_features=24576, out_features=64, bias=True)\n    (3): ReLU()\n    (4): Dropout(p=0.25, inplace=False)\n    (5): Linear(in_features=64, out_features=32, bias=True)\n    (6): ReLU()\n    (7): Linear(in_features=32, out_features=7, bias=True)\n  )\n)"
}{
    "exp_name": "DropoutBatchNormNet_64 5 001 Adam  20231012_044738",
    "model_architect": "DropoutBatchNormNet(\n  (features): Sequential(\n    (0): Conv2d(3, 8, kernel_size=(3, 3), stride=(1, 1))\n    (1): BatchNorm2d(8, eps=1e-05, momentum=0.1, affine=True, track_running_stats=True)\n    (2): ReLU()\n    (3): MaxPool2d(kernel_size=2, stride=2, padding=0, dilation=1, ceil_mode=False)\n    (4): Conv2d(8, 16, kernel_size=(3, 3), stride=(1, 1))\n    (5): BatchNorm2d(16, eps=1e-05, momentum=0.1, affine=True, track_running_stats=True)\n    (6): ReLU()\n    (7): MaxPool2d(kernel_size=2, stride=2, padding=0, dilation=1, ceil_mode=False)\n    (8): Conv2d(16, 32, kernel_size=(3, 3), stride=(1, 1))\n    (9): BatchNorm2d(32, eps=1e-05, momentum=0.1, affine=True, track_running_stats=True)\n    (10): ReLU()\n    (11): MaxPool2d(kernel_size=2, stride=2, padding=0, dilation=1, ceil_mode=False)\n    (12): Conv2d(32, 64, kernel_size=(3, 3), stride=(1, 1))\n    (13): BatchNorm2d(64, eps=1e-05, momentum=0.1, affine=True, track_running_stats=True)\n    (14): ReLU()\n    (15): MaxPool2d(kernel_size=2, stride=2, padding=0, dilation=1, ceil_mode=False)\n    (16): Conv2d(64, 128, kernel_size=(3, 3), stride=(1, 1))\n    (17): BatchNorm2d(128, eps=1e-05, momentum=0.1, affine=True, track_running_stats=True)\n    (18): ReLU()\n    (19): MaxPool2d(kernel_size=2, stride=2, padding=0, dilation=1, ceil_mode=False)\n  )\n  (seq): Sequential(\n    (0): Flatten(start_dim=1, end_dim=-1)\n    (1): Dropout(p=0.4, inplace=False)\n    (2): Linear(in_features=24576, out_features=64, bias=True)\n    (3): ReLU()\n    (4): Linear(in_features=64, out_features=32, bias=True)\n    (5): ReLU()\n    (6): Linear(in_features=32, out_features=7, bias=True)\n  )\n)"
}{
    "exp_name": "DeepConvNet_64 5 001 Adam  20231012_045621",
    "model_architect": "DeepConvNet(\n  (features): Sequential(\n    (0): Conv2d(3, 8, kernel_size=(3, 3), stride=(2, 2), padding=(1, 1))\n    (1): ReLU()\n    (2): Conv2d(8, 16, kernel_size=(3, 3), stride=(2, 2), padding=(1, 1))\n    (3): ReLU()\n    (4): Conv2d(16, 32, kernel_size=(3, 3), stride=(2, 2), padding=(1, 1))\n    (5): ReLU()\n    (6): Conv2d(32, 64, kernel_size=(3, 3), stride=(2, 2), padding=(1, 1))\n    (7): ReLU()\n  )\n  (seq): Sequential(\n    (0): Flatten(start_dim=1, end_dim=-1)\n    (1): Linear(in_features=70528, out_features=64, bias=True)\n    (2): ReLU()\n    (3): Linear(in_features=64, out_features=32, bias=True)\n    (4): ReLU()\n    (5): Linear(in_features=32, out_features=7, bias=True)\n  )\n)"
}{
    "exp_name": "DeepConvBatchNormNet_64 5 001 Adam  20231012_050417",
    "model_architect": "DeepConvBatchNormNet(\n  (features): Sequential(\n    (0): Conv2d(3, 8, kernel_size=(3, 3), stride=(2, 2), padding=(1, 1))\n    (1): BatchNorm2d(8, eps=1e-05, momentum=0.1, affine=True, track_running_stats=True)\n    (2): ReLU()\n    (3): Conv2d(8, 16, kernel_size=(3, 3), stride=(2, 2), padding=(1, 1))\n    (4): BatchNorm2d(16, eps=1e-05, momentum=0.1, affine=True, track_running_stats=True)\n    (5): ReLU()\n    (6): Conv2d(16, 32, kernel_size=(3, 3), stride=(2, 2), padding=(1, 1))\n    (7): BatchNorm2d(32, eps=1e-05, momentum=0.1, affine=True, track_running_stats=True)\n    (8): ReLU()\n    (9): Conv2d(32, 64, kernel_size=(3, 3), stride=(2, 2), padding=(1, 1))\n    (10): BatchNorm2d(64, eps=1e-05, momentum=0.1, affine=True, track_running_stats=True)\n    (11): ReLU()\n  )\n  (seq): Sequential(\n    (0): Flatten(start_dim=1, end_dim=-1)\n    (1): Linear(in_features=70528, out_features=64, bias=True)\n    (2): ReLU()\n    (3): Linear(in_features=64, out_features=32, bias=True)\n    (4): ReLU()\n    (5): Linear(in_features=32, out_features=7, bias=True)\n  )\n)"
}{
    "exp_name": "SkipNet_64 5 001 Adam  20231012_051224",
    "model_architect": "SkipNet(\n  (features): Sequential(\n    (0): SkipBlock(\n      (layer1): Sequential(\n        (0): Conv2d(3, 8, kernel_size=(3, 3), stride=(1, 1), padding=(1, 1))\n        (1): ReLU()\n      )\n      (layer2): Sequential(\n        (0): Conv2d(8, 8, kernel_size=(3, 3), stride=(1, 1), padding=(1, 1))\n        (1): ReLU()\n      )\n    )\n    (1): MaxPool2d(kernel_size=2, stride=2, padding=0, dilation=1, ceil_mode=False)\n    (2): SkipBlock(\n      (layer1): Sequential(\n        (0): Conv2d(8, 16, kernel_size=(3, 3), stride=(1, 1), padding=(1, 1))\n        (1): ReLU()\n      )\n      (layer2): Sequential(\n        (0): Conv2d(16, 16, kernel_size=(3, 3), stride=(1, 1), padding=(1, 1))\n        (1): ReLU()\n      )\n    )\n    (3): MaxPool2d(kernel_size=2, stride=2, padding=0, dilation=1, ceil_mode=False)\n    (4): SkipBlock(\n      (layer1): Sequential(\n        (0): Conv2d(16, 32, kernel_size=(3, 3), stride=(1, 1), padding=(1, 1))\n        (1): ReLU()\n      )\n      (layer2): Sequential(\n        (0): Conv2d(32, 32, kernel_size=(3, 3), stride=(1, 1), padding=(1, 1))\n        (1): ReLU()\n      )\n    )\n    (5): MaxPool2d(kernel_size=2, stride=2, padding=0, dilation=1, ceil_mode=False)\n  )\n  (seq): Sequential(\n    (0): Flatten(start_dim=1, end_dim=-1)\n    (1): Linear(in_features=134400, out_features=64, bias=True)\n    (2): ReLU()\n    (3): Linear(in_features=64, out_features=32, bias=True)\n    (4): ReLU()\n    (5): Linear(in_features=32, out_features=7, bias=True)\n  )\n)"
}{
    "exp_name": "SkipBNNet_6450.001Adam  20231012_231305",
    "model_architect": "SkipBNNet(\n  (features): Sequential(\n    (0): SkipBNBlock(\n      (layer1): Sequential(\n        (0): Conv2d(3, 8, kernel_size=(3, 3), stride=(1, 1), padding=(1, 1))\n        (1): BatchNorm2d(8, eps=1e-05, momentum=0.1, affine=True, track_running_stats=True)\n        (2): ReLU()\n      )\n      (layer2): Sequential(\n        (0): Conv2d(8, 8, kernel_size=(3, 3), stride=(1, 1), padding=(1, 1))\n        (1): BatchNorm2d(8, eps=1e-05, momentum=0.1, affine=True, track_running_stats=True)\n        (2): ReLU()\n      )\n    )\n    (1): MaxPool2d(kernel_size=2, stride=2, padding=0, dilation=1, ceil_mode=False)\n    (2): SkipBNBlock(\n      (layer1): Sequential(\n        (0): Conv2d(8, 16, kernel_size=(3, 3), stride=(1, 1), padding=(1, 1))\n        (1): BatchNorm2d(16, eps=1e-05, momentum=0.1, affine=True, track_running_stats=True)\n        (2): ReLU()\n      )\n      (layer2): Sequential(\n        (0): Conv2d(16, 16, kernel_size=(3, 3), stride=(1, 1), padding=(1, 1))\n        (1): BatchNorm2d(16, eps=1e-05, momentum=0.1, affine=True, track_running_stats=True)\n        (2): ReLU()\n      )\n    )\n    (3): MaxPool2d(kernel_size=2, stride=2, padding=0, dilation=1, ceil_mode=False)\n    (4): SkipBNBlock(\n      (layer1): Sequential(\n        (0): Conv2d(16, 32, kernel_size=(3, 3), stride=(1, 1), padding=(1, 1))\n        (1): BatchNorm2d(32, eps=1e-05, momentum=0.1, affine=True, track_running_stats=True)\n        (2): ReLU()\n      )\n      (layer2): Sequential(\n        (0): Conv2d(32, 32, kernel_size=(3, 3), stride=(1, 1), padding=(1, 1))\n        (1): BatchNorm2d(32, eps=1e-05, momentum=0.1, affine=True, track_running_stats=True)\n        (2): ReLU()\n      )\n    )\n    (5): MaxPool2d(kernel_size=2, stride=2, padding=0, dilation=1, ceil_mode=False)\n  )\n  (seq): Sequential(\n    (0): Flatten(start_dim=1, end_dim=-1)\n    (1): Linear(in_features=134400, out_features=64, bias=True)\n    (2): ReLU()\n    (3): Linear(in_features=64, out_features=32, bias=True)\n    (4): ReLU()\n    (5): Linear(in_features=32, out_features=7, bias=True)\n  )\n)"
}{
    "exp_name": "DropOutSkipBNNet_6450.001Adam  20231012_232054",
    "model_architect": "DropOutSkipBNNet(\n  (features): Sequential(\n    (0): SkipBNBlock(\n      (layer1): Sequential(\n        (0): Conv2d(3, 8, kernel_size=(3, 3), stride=(1, 1), padding=(1, 1))\n        (1): BatchNorm2d(8, eps=1e-05, momentum=0.1, affine=True, track_running_stats=True)\n        (2): ReLU()\n      )\n      (layer2): Sequential(\n        (0): Conv2d(8, 8, kernel_size=(3, 3), stride=(1, 1), padding=(1, 1))\n        (1): BatchNorm2d(8, eps=1e-05, momentum=0.1, affine=True, track_running_stats=True)\n        (2): ReLU()\n      )\n    )\n    (1): MaxPool2d(kernel_size=2, stride=2, padding=0, dilation=1, ceil_mode=False)\n    (2): SkipBNBlock(\n      (layer1): Sequential(\n        (0): Conv2d(8, 16, kernel_size=(3, 3), stride=(1, 1), padding=(1, 1))\n        (1): BatchNorm2d(16, eps=1e-05, momentum=0.1, affine=True, track_running_stats=True)\n        (2): ReLU()\n      )\n      (layer2): Sequential(\n        (0): Conv2d(16, 16, kernel_size=(3, 3), stride=(1, 1), padding=(1, 1))\n        (1): BatchNorm2d(16, eps=1e-05, momentum=0.1, affine=True, track_running_stats=True)\n        (2): ReLU()\n      )\n    )\n    (3): MaxPool2d(kernel_size=2, stride=2, padding=0, dilation=1, ceil_mode=False)\n    (4): SkipBNBlock(\n      (layer1): Sequential(\n        (0): Conv2d(16, 32, kernel_size=(3, 3), stride=(1, 1), padding=(1, 1))\n        (1): BatchNorm2d(32, eps=1e-05, momentum=0.1, affine=True, track_running_stats=True)\n        (2): ReLU()\n      )\n      (layer2): Sequential(\n        (0): Conv2d(32, 32, kernel_size=(3, 3), stride=(1, 1), padding=(1, 1))\n        (1): BatchNorm2d(32, eps=1e-05, momentum=0.1, affine=True, track_running_stats=True)\n        (2): ReLU()\n      )\n    )\n    (5): MaxPool2d(kernel_size=2, stride=2, padding=0, dilation=1, ceil_mode=False)\n  )\n  (seq): Sequential(\n    (0): Flatten(start_dim=1, end_dim=-1)\n    (1): Dropout(p=0.4, inplace=False)\n    (2): Linear(in_features=32256, out_features=64, bias=True)\n    (3): ReLU()\n    (4): Linear(in_features=64, out_features=32, bias=True)\n    (5): ReLU()\n    (6): Linear(in_features=32, out_features=7, bias=True)\n  )\n)"
}{
    "exp_name": "SkipNet_6450.001Adam  20231012_232450",
    "model_architect": "SkipNet(\n  (features): Sequential(\n    (0): SkipBlock(\n      (layer1): Sequential(\n        (0): Conv2d(3, 8, kernel_size=(3, 3), stride=(1, 1), padding=(1, 1))\n        (1): ReLU()\n      )\n      (layer2): Sequential(\n        (0): Conv2d(8, 8, kernel_size=(3, 3), stride=(1, 1), padding=(1, 1))\n        (1): ReLU()\n      )\n    )\n    (1): MaxPool2d(kernel_size=2, stride=2, padding=0, dilation=1, ceil_mode=False)\n    (2): SkipBlock(\n      (layer1): Sequential(\n        (0): Conv2d(8, 16, kernel_size=(3, 3), stride=(1, 1), padding=(1, 1))\n        (1): ReLU()\n      )\n      (layer2): Sequential(\n        (0): Conv2d(16, 16, kernel_size=(3, 3), stride=(1, 1), padding=(1, 1))\n        (1): ReLU()\n      )\n    )\n    (3): MaxPool2d(kernel_size=2, stride=2, padding=0, dilation=1, ceil_mode=False)\n    (4): SkipBlock(\n      (layer1): Sequential(\n        (0): Conv2d(16, 32, kernel_size=(3, 3), stride=(1, 1), padding=(1, 1))\n        (1): ReLU()\n      )\n      (layer2): Sequential(\n        (0): Conv2d(32, 32, kernel_size=(3, 3), stride=(1, 1), padding=(1, 1))\n        (1): ReLU()\n      )\n    )\n    (5): MaxPool2d(kernel_size=2, stride=2, padding=0, dilation=1, ceil_mode=False)\n  )\n  (seq): Sequential(\n    (0): Flatten(start_dim=1, end_dim=-1)\n    (1): Linear(in_features=134400, out_features=64, bias=True)\n    (2): ReLU()\n    (3): Linear(in_features=64, out_features=32, bias=True)\n    (4): ReLU()\n    (5): Linear(in_features=32, out_features=7, bias=True)\n  )\n)"
}{
    "exp_name": "SkipBNNet_6450.001Adam  20231012_235043",
    "model_architect": "SkipBNNet(\n  (features): Sequential(\n    (0): SkipBNBlock(\n      (layer1): Sequential(\n        (0): Conv2d(3, 8, kernel_size=(3, 3), stride=(1, 1), padding=(1, 1))\n        (1): BatchNorm2d(8, eps=1e-05, momentum=0.1, affine=True, track_running_stats=True)\n        (2): ReLU()\n      )\n      (layer2): Sequential(\n        (0): Conv2d(8, 8, kernel_size=(3, 3), stride=(1, 1), padding=(1, 1))\n        (1): BatchNorm2d(8, eps=1e-05, momentum=0.1, affine=True, track_running_stats=True)\n        (2): ReLU()\n      )\n    )\n    (1): MaxPool2d(kernel_size=2, stride=2, padding=0, dilation=1, ceil_mode=False)\n    (2): SkipBNBlock(\n      (layer1): Sequential(\n        (0): Conv2d(8, 16, kernel_size=(3, 3), stride=(1, 1), padding=(1, 1))\n        (1): BatchNorm2d(16, eps=1e-05, momentum=0.1, affine=True, track_running_stats=True)\n        (2): ReLU()\n      )\n      (layer2): Sequential(\n        (0): Conv2d(16, 16, kernel_size=(3, 3), stride=(1, 1), padding=(1, 1))\n        (1): BatchNorm2d(16, eps=1e-05, momentum=0.1, affine=True, track_running_stats=True)\n        (2): ReLU()\n      )\n    )\n    (3): MaxPool2d(kernel_size=2, stride=2, padding=0, dilation=1, ceil_mode=False)\n    (4): SkipBNBlock(\n      (layer1): Sequential(\n        (0): Conv2d(16, 32, kernel_size=(3, 3), stride=(1, 1), padding=(1, 1))\n        (1): BatchNorm2d(32, eps=1e-05, momentum=0.1, affine=True, track_running_stats=True)\n        (2): ReLU()\n      )\n      (layer2): Sequential(\n        (0): Conv2d(32, 32, kernel_size=(3, 3), stride=(1, 1), padding=(1, 1))\n        (1): BatchNorm2d(32, eps=1e-05, momentum=0.1, affine=True, track_running_stats=True)\n        (2): ReLU()\n      )\n    )\n    (5): MaxPool2d(kernel_size=2, stride=2, padding=0, dilation=1, ceil_mode=False)\n  )\n  (seq): Sequential(\n    (0): Flatten(start_dim=1, end_dim=-1)\n    (1): Linear(in_features=134400, out_features=64, bias=True)\n    (2): ReLU()\n    (3): Linear(in_features=64, out_features=32, bias=True)\n    (4): ReLU()\n    (5): Linear(in_features=32, out_features=7, bias=True)\n  )\n)"
}{
    "exp_name": "DropOutSkipBNNet_6450.001Adam  20231013_000059",
    "model_architect": "DropOutSkipBNNet(\n  (features): Sequential(\n    (0): SkipBNBlock(\n      (layer1): Sequential(\n        (0): Conv2d(3, 8, kernel_size=(3, 3), stride=(1, 1), padding=(1, 1))\n        (1): BatchNorm2d(8, eps=1e-05, momentum=0.1, affine=True, track_running_stats=True)\n        (2): ReLU()\n      )\n      (layer2): Sequential(\n        (0): Conv2d(8, 8, kernel_size=(3, 3), stride=(1, 1), padding=(1, 1))\n        (1): BatchNorm2d(8, eps=1e-05, momentum=0.1, affine=True, track_running_stats=True)\n        (2): ReLU()\n      )\n    )\n    (1): MaxPool2d(kernel_size=2, stride=2, padding=0, dilation=1, ceil_mode=False)\n    (2): SkipBNBlock(\n      (layer1): Sequential(\n        (0): Conv2d(8, 16, kernel_size=(3, 3), stride=(1, 1), padding=(1, 1))\n        (1): BatchNorm2d(16, eps=1e-05, momentum=0.1, affine=True, track_running_stats=True)\n        (2): ReLU()\n      )\n      (layer2): Sequential(\n        (0): Conv2d(16, 16, kernel_size=(3, 3), stride=(1, 1), padding=(1, 1))\n        (1): BatchNorm2d(16, eps=1e-05, momentum=0.1, affine=True, track_running_stats=True)\n        (2): ReLU()\n      )\n    )\n    (3): MaxPool2d(kernel_size=2, stride=2, padding=0, dilation=1, ceil_mode=False)\n    (4): SkipBNBlock(\n      (layer1): Sequential(\n        (0): Conv2d(16, 32, kernel_size=(3, 3), stride=(1, 1), padding=(1, 1))\n        (1): BatchNorm2d(32, eps=1e-05, momentum=0.1, affine=True, track_running_stats=True)\n        (2): ReLU()\n      )\n      (layer2): Sequential(\n        (0): Conv2d(32, 32, kernel_size=(3, 3), stride=(1, 1), padding=(1, 1))\n        (1): BatchNorm2d(32, eps=1e-05, momentum=0.1, affine=True, track_running_stats=True)\n        (2): ReLU()\n      )\n    )\n    (5): MaxPool2d(kernel_size=2, stride=2, padding=0, dilation=1, ceil_mode=False)\n  )\n  (seq): Sequential(\n    (0): Flatten(start_dim=1, end_dim=-1)\n    (1): Dropout(p=0.4, inplace=False)\n    (2): Linear(in_features=134400, out_features=64, bias=True)\n    (3): ReLU()\n    (4): Linear(in_features=64, out_features=32, bias=True)\n    (5): ReLU()\n    (6): Linear(in_features=32, out_features=7, bias=True)\n  )\n)"
}{
    "exp_name": "ResNet_3250.001Adam  20231013_005011",
    "model_architect": "ResNet(\n  (conv1): Conv2d(3, 64, kernel_size=(7, 7), stride=(2, 2), padding=(3, 3), bias=False)\n  (bn1): BatchNorm2d(64, eps=1e-05, momentum=0.1, affine=True, track_running_stats=True)\n  (relu): ReLU(inplace=True)\n  (maxpool): MaxPool2d(kernel_size=3, stride=2, padding=1, dilation=1, ceil_mode=False)\n  (layer1): Sequential(\n    (0): BasicBlock(\n      (conv1): Conv2d(64, 64, kernel_size=(3, 3), stride=(1, 1), padding=(1, 1), bias=False)\n      (bn1): BatchNorm2d(64, eps=1e-05, momentum=0.1, affine=True, track_running_stats=True)\n      (relu): ReLU(inplace=True)\n      (conv2): Conv2d(64, 64, kernel_size=(3, 3), stride=(1, 1), padding=(1, 1), bias=False)\n      (bn2): BatchNorm2d(64, eps=1e-05, momentum=0.1, affine=True, track_running_stats=True)\n    )\n    (1): BasicBlock(\n      (conv1): Conv2d(64, 64, kernel_size=(3, 3), stride=(1, 1), padding=(1, 1), bias=False)\n      (bn1): BatchNorm2d(64, eps=1e-05, momentum=0.1, affine=True, track_running_stats=True)\n      (relu): ReLU(inplace=True)\n      (conv2): Conv2d(64, 64, kernel_size=(3, 3), stride=(1, 1), padding=(1, 1), bias=False)\n      (bn2): BatchNorm2d(64, eps=1e-05, momentum=0.1, affine=True, track_running_stats=True)\n    )\n  )\n  (layer2): Sequential(\n    (0): BasicBlock(\n      (conv1): Conv2d(64, 128, kernel_size=(3, 3), stride=(2, 2), padding=(1, 1), bias=False)\n      (bn1): BatchNorm2d(128, eps=1e-05, momentum=0.1, affine=True, track_running_stats=True)\n      (relu): ReLU(inplace=True)\n      (conv2): Conv2d(128, 128, kernel_size=(3, 3), stride=(1, 1), padding=(1, 1), bias=False)\n      (bn2): BatchNorm2d(128, eps=1e-05, momentum=0.1, affine=True, track_running_stats=True)\n      (downsample): Sequential(\n        (0): Conv2d(64, 128, kernel_size=(1, 1), stride=(2, 2), bias=False)\n        (1): BatchNorm2d(128, eps=1e-05, momentum=0.1, affine=True, track_running_stats=True)\n      )\n    )\n    (1): BasicBlock(\n      (conv1): Conv2d(128, 128, kernel_size=(3, 3), stride=(1, 1), padding=(1, 1), bias=False)\n      (bn1): BatchNorm2d(128, eps=1e-05, momentum=0.1, affine=True, track_running_stats=True)\n      (relu): ReLU(inplace=True)\n      (conv2): Conv2d(128, 128, kernel_size=(3, 3), stride=(1, 1), padding=(1, 1), bias=False)\n      (bn2): BatchNorm2d(128, eps=1e-05, momentum=0.1, affine=True, track_running_stats=True)\n    )\n  )\n  (layer3): Sequential(\n    (0): BasicBlock(\n      (conv1): Conv2d(128, 256, kernel_size=(3, 3), stride=(2, 2), padding=(1, 1), bias=False)\n      (bn1): BatchNorm2d(256, eps=1e-05, momentum=0.1, affine=True, track_running_stats=True)\n      (relu): ReLU(inplace=True)\n      (conv2): Conv2d(256, 256, kernel_size=(3, 3), stride=(1, 1), padding=(1, 1), bias=False)\n      (bn2): BatchNorm2d(256, eps=1e-05, momentum=0.1, affine=True, track_running_stats=True)\n      (downsample): Sequential(\n        (0): Conv2d(128, 256, kernel_size=(1, 1), stride=(2, 2), bias=False)\n        (1): BatchNorm2d(256, eps=1e-05, momentum=0.1, affine=True, track_running_stats=True)\n      )\n    )\n    (1): BasicBlock(\n      (conv1): Conv2d(256, 256, kernel_size=(3, 3), stride=(1, 1), padding=(1, 1), bias=False)\n      (bn1): BatchNorm2d(256, eps=1e-05, momentum=0.1, affine=True, track_running_stats=True)\n      (relu): ReLU(inplace=True)\n      (conv2): Conv2d(256, 256, kernel_size=(3, 3), stride=(1, 1), padding=(1, 1), bias=False)\n      (bn2): BatchNorm2d(256, eps=1e-05, momentum=0.1, affine=True, track_running_stats=True)\n    )\n  )\n  (layer4): Sequential(\n    (0): BasicBlock(\n      (conv1): Conv2d(256, 512, kernel_size=(3, 3), stride=(2, 2), padding=(1, 1), bias=False)\n      (bn1): BatchNorm2d(512, eps=1e-05, momentum=0.1, affine=True, track_running_stats=True)\n      (relu): ReLU(inplace=True)\n      (conv2): Conv2d(512, 512, kernel_size=(3, 3), stride=(1, 1), padding=(1, 1), bias=False)\n      (bn2): BatchNorm2d(512, eps=1e-05, momentum=0.1, affine=True, track_running_stats=True)\n      (downsample): Sequential(\n        (0): Conv2d(256, 512, kernel_size=(1, 1), stride=(2, 2), bias=False)\n        (1): BatchNorm2d(512, eps=1e-05, momentum=0.1, affine=True, track_running_stats=True)\n      )\n    )\n    (1): BasicBlock(\n      (conv1): Conv2d(512, 512, kernel_size=(3, 3), stride=(1, 1), padding=(1, 1), bias=False)\n      (bn1): BatchNorm2d(512, eps=1e-05, momentum=0.1, affine=True, track_running_stats=True)\n      (relu): ReLU(inplace=True)\n      (conv2): Conv2d(512, 512, kernel_size=(3, 3), stride=(1, 1), padding=(1, 1), bias=False)\n      (bn2): BatchNorm2d(512, eps=1e-05, momentum=0.1, affine=True, track_running_stats=True)\n    )\n  )\n  (avgpool): AdaptiveAvgPool2d(output_size=(1, 1))\n  (fc): Linear(in_features=512, out_features=7, bias=True)\n)"
}{
    "exp_name": "ResNet_3250.001Adam  20231013_005936",
    "model_architect": "ResNet(\n  (conv1): Conv2d(3, 64, kernel_size=(7, 7), stride=(2, 2), padding=(3, 3), bias=False)\n  (bn1): BatchNorm2d(64, eps=1e-05, momentum=0.1, affine=True, track_running_stats=True)\n  (relu): ReLU(inplace=True)\n  (maxpool): MaxPool2d(kernel_size=3, stride=2, padding=1, dilation=1, ceil_mode=False)\n  (layer1): Sequential(\n    (0): Bottleneck(\n      (conv1): Conv2d(64, 64, kernel_size=(1, 1), stride=(1, 1), bias=False)\n      (bn1): BatchNorm2d(64, eps=1e-05, momentum=0.1, affine=True, track_running_stats=True)\n      (conv2): Conv2d(64, 64, kernel_size=(3, 3), stride=(1, 1), padding=(1, 1), bias=False)\n      (bn2): BatchNorm2d(64, eps=1e-05, momentum=0.1, affine=True, track_running_stats=True)\n      (conv3): Conv2d(64, 256, kernel_size=(1, 1), stride=(1, 1), bias=False)\n      (bn3): BatchNorm2d(256, eps=1e-05, momentum=0.1, affine=True, track_running_stats=True)\n      (relu): ReLU(inplace=True)\n      (downsample): Sequential(\n        (0): Conv2d(64, 256, kernel_size=(1, 1), stride=(1, 1), bias=False)\n        (1): BatchNorm2d(256, eps=1e-05, momentum=0.1, affine=True, track_running_stats=True)\n      )\n    )\n    (1): Bottleneck(\n      (conv1): Conv2d(256, 64, kernel_size=(1, 1), stride=(1, 1), bias=False)\n      (bn1): BatchNorm2d(64, eps=1e-05, momentum=0.1, affine=True, track_running_stats=True)\n      (conv2): Conv2d(64, 64, kernel_size=(3, 3), stride=(1, 1), padding=(1, 1), bias=False)\n      (bn2): BatchNorm2d(64, eps=1e-05, momentum=0.1, affine=True, track_running_stats=True)\n      (conv3): Conv2d(64, 256, kernel_size=(1, 1), stride=(1, 1), bias=False)\n      (bn3): BatchNorm2d(256, eps=1e-05, momentum=0.1, affine=True, track_running_stats=True)\n      (relu): ReLU(inplace=True)\n    )\n    (2): Bottleneck(\n      (conv1): Conv2d(256, 64, kernel_size=(1, 1), stride=(1, 1), bias=False)\n      (bn1): BatchNorm2d(64, eps=1e-05, momentum=0.1, affine=True, track_running_stats=True)\n      (conv2): Conv2d(64, 64, kernel_size=(3, 3), stride=(1, 1), padding=(1, 1), bias=False)\n      (bn2): BatchNorm2d(64, eps=1e-05, momentum=0.1, affine=True, track_running_stats=True)\n      (conv3): Conv2d(64, 256, kernel_size=(1, 1), stride=(1, 1), bias=False)\n      (bn3): BatchNorm2d(256, eps=1e-05, momentum=0.1, affine=True, track_running_stats=True)\n      (relu): ReLU(inplace=True)\n    )\n  )\n  (layer2): Sequential(\n    (0): Bottleneck(\n      (conv1): Conv2d(256, 128, kernel_size=(1, 1), stride=(1, 1), bias=False)\n      (bn1): BatchNorm2d(128, eps=1e-05, momentum=0.1, affine=True, track_running_stats=True)\n      (conv2): Conv2d(128, 128, kernel_size=(3, 3), stride=(2, 2), padding=(1, 1), bias=False)\n      (bn2): BatchNorm2d(128, eps=1e-05, momentum=0.1, affine=True, track_running_stats=True)\n      (conv3): Conv2d(128, 512, kernel_size=(1, 1), stride=(1, 1), bias=False)\n      (bn3): BatchNorm2d(512, eps=1e-05, momentum=0.1, affine=True, track_running_stats=True)\n      (relu): ReLU(inplace=True)\n      (downsample): Sequential(\n        (0): Conv2d(256, 512, kernel_size=(1, 1), stride=(2, 2), bias=False)\n        (1): BatchNorm2d(512, eps=1e-05, momentum=0.1, affine=True, track_running_stats=True)\n      )\n    )\n    (1): Bottleneck(\n      (conv1): Conv2d(512, 128, kernel_size=(1, 1), stride=(1, 1), bias=False)\n      (bn1): BatchNorm2d(128, eps=1e-05, momentum=0.1, affine=True, track_running_stats=True)\n      (conv2): Conv2d(128, 128, kernel_size=(3, 3), stride=(1, 1), padding=(1, 1), bias=False)\n      (bn2): BatchNorm2d(128, eps=1e-05, momentum=0.1, affine=True, track_running_stats=True)\n      (conv3): Conv2d(128, 512, kernel_size=(1, 1), stride=(1, 1), bias=False)\n      (bn3): BatchNorm2d(512, eps=1e-05, momentum=0.1, affine=True, track_running_stats=True)\n      (relu): ReLU(inplace=True)\n    )\n    (2): Bottleneck(\n      (conv1): Conv2d(512, 128, kernel_size=(1, 1), stride=(1, 1), bias=False)\n      (bn1): BatchNorm2d(128, eps=1e-05, momentum=0.1, affine=True, track_running_stats=True)\n      (conv2): Conv2d(128, 128, kernel_size=(3, 3), stride=(1, 1), padding=(1, 1), bias=False)\n      (bn2): BatchNorm2d(128, eps=1e-05, momentum=0.1, affine=True, track_running_stats=True)\n      (conv3): Conv2d(128, 512, kernel_size=(1, 1), stride=(1, 1), bias=False)\n      (bn3): BatchNorm2d(512, eps=1e-05, momentum=0.1, affine=True, track_running_stats=True)\n      (relu): ReLU(inplace=True)\n    )\n    (3): Bottleneck(\n      (conv1): Conv2d(512, 128, kernel_size=(1, 1), stride=(1, 1), bias=False)\n      (bn1): BatchNorm2d(128, eps=1e-05, momentum=0.1, affine=True, track_running_stats=True)\n      (conv2): Conv2d(128, 128, kernel_size=(3, 3), stride=(1, 1), padding=(1, 1), bias=False)\n      (bn2): BatchNorm2d(128, eps=1e-05, momentum=0.1, affine=True, track_running_stats=True)\n      (conv3): Conv2d(128, 512, kernel_size=(1, 1), stride=(1, 1), bias=False)\n      (bn3): BatchNorm2d(512, eps=1e-05, momentum=0.1, affine=True, track_running_stats=True)\n      (relu): ReLU(inplace=True)\n    )\n  )\n  (layer3): Sequential(\n    (0): Bottleneck(\n      (conv1): Conv2d(512, 256, kernel_size=(1, 1), stride=(1, 1), bias=False)\n      (bn1): BatchNorm2d(256, eps=1e-05, momentum=0.1, affine=True, track_running_stats=True)\n      (conv2): Conv2d(256, 256, kernel_size=(3, 3), stride=(2, 2), padding=(1, 1), bias=False)\n      (bn2): BatchNorm2d(256, eps=1e-05, momentum=0.1, affine=True, track_running_stats=True)\n      (conv3): Conv2d(256, 1024, kernel_size=(1, 1), stride=(1, 1), bias=False)\n      (bn3): BatchNorm2d(1024, eps=1e-05, momentum=0.1, affine=True, track_running_stats=True)\n      (relu): ReLU(inplace=True)\n      (downsample): Sequential(\n        (0): Conv2d(512, 1024, kernel_size=(1, 1), stride=(2, 2), bias=False)\n        (1): BatchNorm2d(1024, eps=1e-05, momentum=0.1, affine=True, track_running_stats=True)\n      )\n    )\n    (1): Bottleneck(\n      (conv1): Conv2d(1024, 256, kernel_size=(1, 1), stride=(1, 1), bias=False)\n      (bn1): BatchNorm2d(256, eps=1e-05, momentum=0.1, affine=True, track_running_stats=True)\n      (conv2): Conv2d(256, 256, kernel_size=(3, 3), stride=(1, 1), padding=(1, 1), bias=False)\n      (bn2): BatchNorm2d(256, eps=1e-05, momentum=0.1, affine=True, track_running_stats=True)\n      (conv3): Conv2d(256, 1024, kernel_size=(1, 1), stride=(1, 1), bias=False)\n      (bn3): BatchNorm2d(1024, eps=1e-05, momentum=0.1, affine=True, track_running_stats=True)\n      (relu): ReLU(inplace=True)\n    )\n    (2): Bottleneck(\n      (conv1): Conv2d(1024, 256, kernel_size=(1, 1), stride=(1, 1), bias=False)\n      (bn1): BatchNorm2d(256, eps=1e-05, momentum=0.1, affine=True, track_running_stats=True)\n      (conv2): Conv2d(256, 256, kernel_size=(3, 3), stride=(1, 1), padding=(1, 1), bias=False)\n      (bn2): BatchNorm2d(256, eps=1e-05, momentum=0.1, affine=True, track_running_stats=True)\n      (conv3): Conv2d(256, 1024, kernel_size=(1, 1), stride=(1, 1), bias=False)\n      (bn3): BatchNorm2d(1024, eps=1e-05, momentum=0.1, affine=True, track_running_stats=True)\n      (relu): ReLU(inplace=True)\n    )\n    (3): Bottleneck(\n      (conv1): Conv2d(1024, 256, kernel_size=(1, 1), stride=(1, 1), bias=False)\n      (bn1): BatchNorm2d(256, eps=1e-05, momentum=0.1, affine=True, track_running_stats=True)\n      (conv2): Conv2d(256, 256, kernel_size=(3, 3), stride=(1, 1), padding=(1, 1), bias=False)\n      (bn2): BatchNorm2d(256, eps=1e-05, momentum=0.1, affine=True, track_running_stats=True)\n      (conv3): Conv2d(256, 1024, kernel_size=(1, 1), stride=(1, 1), bias=False)\n      (bn3): BatchNorm2d(1024, eps=1e-05, momentum=0.1, affine=True, track_running_stats=True)\n      (relu): ReLU(inplace=True)\n    )\n    (4): Bottleneck(\n      (conv1): Conv2d(1024, 256, kernel_size=(1, 1), stride=(1, 1), bias=False)\n      (bn1): BatchNorm2d(256, eps=1e-05, momentum=0.1, affine=True, track_running_stats=True)\n      (conv2): Conv2d(256, 256, kernel_size=(3, 3), stride=(1, 1), padding=(1, 1), bias=False)\n      (bn2): BatchNorm2d(256, eps=1e-05, momentum=0.1, affine=True, track_running_stats=True)\n      (conv3): Conv2d(256, 1024, kernel_size=(1, 1), stride=(1, 1), bias=False)\n      (bn3): BatchNorm2d(1024, eps=1e-05, momentum=0.1, affine=True, track_running_stats=True)\n      (relu): ReLU(inplace=True)\n    )\n    (5): Bottleneck(\n      (conv1): Conv2d(1024, 256, kernel_size=(1, 1), stride=(1, 1), bias=False)\n      (bn1): BatchNorm2d(256, eps=1e-05, momentum=0.1, affine=True, track_running_stats=True)\n      (conv2): Conv2d(256, 256, kernel_size=(3, 3), stride=(1, 1), padding=(1, 1), bias=False)\n      (bn2): BatchNorm2d(256, eps=1e-05, momentum=0.1, affine=True, track_running_stats=True)\n      (conv3): Conv2d(256, 1024, kernel_size=(1, 1), stride=(1, 1), bias=False)\n      (bn3): BatchNorm2d(1024, eps=1e-05, momentum=0.1, affine=True, track_running_stats=True)\n      (relu): ReLU(inplace=True)\n    )\n  )\n  (layer4): Sequential(\n    (0): Bottleneck(\n      (conv1): Conv2d(1024, 512, kernel_size=(1, 1), stride=(1, 1), bias=False)\n      (bn1): BatchNorm2d(512, eps=1e-05, momentum=0.1, affine=True, track_running_stats=True)\n      (conv2): Conv2d(512, 512, kernel_size=(3, 3), stride=(2, 2), padding=(1, 1), bias=False)\n      (bn2): BatchNorm2d(512, eps=1e-05, momentum=0.1, affine=True, track_running_stats=True)\n      (conv3): Conv2d(512, 2048, kernel_size=(1, 1), stride=(1, 1), bias=False)\n      (bn3): BatchNorm2d(2048, eps=1e-05, momentum=0.1, affine=True, track_running_stats=True)\n      (relu): ReLU(inplace=True)\n      (downsample): Sequential(\n        (0): Conv2d(1024, 2048, kernel_size=(1, 1), stride=(2, 2), bias=False)\n        (1): BatchNorm2d(2048, eps=1e-05, momentum=0.1, affine=True, track_running_stats=True)\n      )\n    )\n    (1): Bottleneck(\n      (conv1): Conv2d(2048, 512, kernel_size=(1, 1), stride=(1, 1), bias=False)\n      (bn1): BatchNorm2d(512, eps=1e-05, momentum=0.1, affine=True, track_running_stats=True)\n      (conv2): Conv2d(512, 512, kernel_size=(3, 3), stride=(1, 1), padding=(1, 1), bias=False)\n      (bn2): BatchNorm2d(512, eps=1e-05, momentum=0.1, affine=True, track_running_stats=True)\n      (conv3): Conv2d(512, 2048, kernel_size=(1, 1), stride=(1, 1), bias=False)\n      (bn3): BatchNorm2d(2048, eps=1e-05, momentum=0.1, affine=True, track_running_stats=True)\n      (relu): ReLU(inplace=True)\n    )\n    (2): Bottleneck(\n      (conv1): Conv2d(2048, 512, kernel_size=(1, 1), stride=(1, 1), bias=False)\n      (bn1): BatchNorm2d(512, eps=1e-05, momentum=0.1, affine=True, track_running_stats=True)\n      (conv2): Conv2d(512, 512, kernel_size=(3, 3), stride=(1, 1), padding=(1, 1), bias=False)\n      (bn2): BatchNorm2d(512, eps=1e-05, momentum=0.1, affine=True, track_running_stats=True)\n      (conv3): Conv2d(512, 2048, kernel_size=(1, 1), stride=(1, 1), bias=False)\n      (bn3): BatchNorm2d(2048, eps=1e-05, momentum=0.1, affine=True, track_running_stats=True)\n      (relu): ReLU(inplace=True)\n    )\n  )\n  (avgpool): AdaptiveAvgPool2d(output_size=(1, 1))\n  (fc): Linear(in_features=2048, out_features=7, bias=True)\n)"
}{
    "exp_name": "EfficientNet_3250.001Adam  20231013_011225",
    "model_architect": "EfficientNet(\n  (features): Sequential(\n    (0): Conv2dNormActivation(\n      (0): Conv2d(3, 24, kernel_size=(3, 3), stride=(2, 2), padding=(1, 1), bias=False)\n      (1): BatchNorm2d(24, eps=0.001, momentum=0.1, affine=True, track_running_stats=True)\n      (2): SiLU(inplace=True)\n    )\n    (1): Sequential(\n      (0): FusedMBConv(\n        (block): Sequential(\n          (0): Conv2dNormActivation(\n            (0): Conv2d(24, 24, kernel_size=(3, 3), stride=(1, 1), padding=(1, 1), bias=False)\n            (1): BatchNorm2d(24, eps=0.001, momentum=0.1, affine=True, track_running_stats=True)\n            (2): SiLU(inplace=True)\n          )\n        )\n        (stochastic_depth): StochasticDepth(p=0.0, mode=row)\n      )\n      (1): FusedMBConv(\n        (block): Sequential(\n          (0): Conv2dNormActivation(\n            (0): Conv2d(24, 24, kernel_size=(3, 3), stride=(1, 1), padding=(1, 1), bias=False)\n            (1): BatchNorm2d(24, eps=0.001, momentum=0.1, affine=True, track_running_stats=True)\n            (2): SiLU(inplace=True)\n          )\n        )\n        (stochastic_depth): StochasticDepth(p=0.005, mode=row)\n      )\n    )\n    (2): Sequential(\n      (0): FusedMBConv(\n        (block): Sequential(\n          (0): Conv2dNormActivation(\n            (0): Conv2d(24, 96, kernel_size=(3, 3), stride=(2, 2), padding=(1, 1), bias=False)\n            (1): BatchNorm2d(96, eps=0.001, momentum=0.1, affine=True, track_running_stats=True)\n            (2): SiLU(inplace=True)\n          )\n          (1): Conv2dNormActivation(\n            (0): Conv2d(96, 48, kernel_size=(1, 1), stride=(1, 1), bias=False)\n            (1): BatchNorm2d(48, eps=0.001, momentum=0.1, affine=True, track_running_stats=True)\n          )\n        )\n        (stochastic_depth): StochasticDepth(p=0.01, mode=row)\n      )\n      (1): FusedMBConv(\n        (block): Sequential(\n          (0): Conv2dNormActivation(\n            (0): Conv2d(48, 192, kernel_size=(3, 3), stride=(1, 1), padding=(1, 1), bias=False)\n            (1): BatchNorm2d(192, eps=0.001, momentum=0.1, affine=True, track_running_stats=True)\n            (2): SiLU(inplace=True)\n          )\n          (1): Conv2dNormActivation(\n            (0): Conv2d(192, 48, kernel_size=(1, 1), stride=(1, 1), bias=False)\n            (1): BatchNorm2d(48, eps=0.001, momentum=0.1, affine=True, track_running_stats=True)\n          )\n        )\n        (stochastic_depth): StochasticDepth(p=0.015000000000000003, mode=row)\n      )\n      (2): FusedMBConv(\n        (block): Sequential(\n          (0): Conv2dNormActivation(\n            (0): Conv2d(48, 192, kernel_size=(3, 3), stride=(1, 1), padding=(1, 1), bias=False)\n            (1): BatchNorm2d(192, eps=0.001, momentum=0.1, affine=True, track_running_stats=True)\n            (2): SiLU(inplace=True)\n          )\n          (1): Conv2dNormActivation(\n            (0): Conv2d(192, 48, kernel_size=(1, 1), stride=(1, 1), bias=False)\n            (1): BatchNorm2d(48, eps=0.001, momentum=0.1, affine=True, track_running_stats=True)\n          )\n        )\n        (stochastic_depth): StochasticDepth(p=0.02, mode=row)\n      )\n      (3): FusedMBConv(\n        (block): Sequential(\n          (0): Conv2dNormActivation(\n            (0): Conv2d(48, 192, kernel_size=(3, 3), stride=(1, 1), padding=(1, 1), bias=False)\n            (1): BatchNorm2d(192, eps=0.001, momentum=0.1, affine=True, track_running_stats=True)\n            (2): SiLU(inplace=True)\n          )\n          (1): Conv2dNormActivation(\n            (0): Conv2d(192, 48, kernel_size=(1, 1), stride=(1, 1), bias=False)\n            (1): BatchNorm2d(48, eps=0.001, momentum=0.1, affine=True, track_running_stats=True)\n          )\n        )\n        (stochastic_depth): StochasticDepth(p=0.025, mode=row)\n      )\n    )\n    (3): Sequential(\n      (0): FusedMBConv(\n        (block): Sequential(\n          (0): Conv2dNormActivation(\n            (0): Conv2d(48, 192, kernel_size=(3, 3), stride=(2, 2), padding=(1, 1), bias=False)\n            (1): BatchNorm2d(192, eps=0.001, momentum=0.1, affine=True, track_running_stats=True)\n            (2): SiLU(inplace=True)\n          )\n          (1): Conv2dNormActivation(\n            (0): Conv2d(192, 64, kernel_size=(1, 1), stride=(1, 1), bias=False)\n            (1): BatchNorm2d(64, eps=0.001, momentum=0.1, affine=True, track_running_stats=True)\n          )\n        )\n        (stochastic_depth): StochasticDepth(p=0.030000000000000006, mode=row)\n      )\n      (1): FusedMBConv(\n        (block): Sequential(\n          (0): Conv2dNormActivation(\n            (0): Conv2d(64, 256, kernel_size=(3, 3), stride=(1, 1), padding=(1, 1), bias=False)\n            (1): BatchNorm2d(256, eps=0.001, momentum=0.1, affine=True, track_running_stats=True)\n            (2): SiLU(inplace=True)\n          )\n          (1): Conv2dNormActivation(\n            (0): Conv2d(256, 64, kernel_size=(1, 1), stride=(1, 1), bias=False)\n            (1): BatchNorm2d(64, eps=0.001, momentum=0.1, affine=True, track_running_stats=True)\n          )\n        )\n        (stochastic_depth): StochasticDepth(p=0.035, mode=row)\n      )\n      (2): FusedMBConv(\n        (block): Sequential(\n          (0): Conv2dNormActivation(\n            (0): Conv2d(64, 256, kernel_size=(3, 3), stride=(1, 1), padding=(1, 1), bias=False)\n            (1): BatchNorm2d(256, eps=0.001, momentum=0.1, affine=True, track_running_stats=True)\n            (2): SiLU(inplace=True)\n          )\n          (1): Conv2dNormActivation(\n            (0): Conv2d(256, 64, kernel_size=(1, 1), stride=(1, 1), bias=False)\n            (1): BatchNorm2d(64, eps=0.001, momentum=0.1, affine=True, track_running_stats=True)\n          )\n        )\n        (stochastic_depth): StochasticDepth(p=0.04, mode=row)\n      )\n      (3): FusedMBConv(\n        (block): Sequential(\n          (0): Conv2dNormActivation(\n            (0): Conv2d(64, 256, kernel_size=(3, 3), stride=(1, 1), padding=(1, 1), bias=False)\n            (1): BatchNorm2d(256, eps=0.001, momentum=0.1, affine=True, track_running_stats=True)\n            (2): SiLU(inplace=True)\n          )\n          (1): Conv2dNormActivation(\n            (0): Conv2d(256, 64, kernel_size=(1, 1), stride=(1, 1), bias=False)\n            (1): BatchNorm2d(64, eps=0.001, momentum=0.1, affine=True, track_running_stats=True)\n          )\n        )\n        (stochastic_depth): StochasticDepth(p=0.045, mode=row)\n      )\n    )\n    (4): Sequential(\n      (0): MBConv(\n        (block): Sequential(\n          (0): Conv2dNormActivation(\n            (0): Conv2d(64, 256, kernel_size=(1, 1), stride=(1, 1), bias=False)\n            (1): BatchNorm2d(256, eps=0.001, momentum=0.1, affine=True, track_running_stats=True)\n            (2): SiLU(inplace=True)\n          )\n          (1): Conv2dNormActivation(\n            (0): Conv2d(256, 256, kernel_size=(3, 3), stride=(2, 2), padding=(1, 1), groups=256, bias=False)\n            (1): BatchNorm2d(256, eps=0.001, momentum=0.1, affine=True, track_running_stats=True)\n            (2): SiLU(inplace=True)\n          )\n          (2): SqueezeExcitation(\n            (avgpool): AdaptiveAvgPool2d(output_size=1)\n            (fc1): Conv2d(256, 16, kernel_size=(1, 1), stride=(1, 1))\n            (fc2): Conv2d(16, 256, kernel_size=(1, 1), stride=(1, 1))\n            (activation): SiLU(inplace=True)\n            (scale_activation): Sigmoid()\n          )\n          (3): Conv2dNormActivation(\n            (0): Conv2d(256, 128, kernel_size=(1, 1), stride=(1, 1), bias=False)\n            (1): BatchNorm2d(128, eps=0.001, momentum=0.1, affine=True, track_running_stats=True)\n          )\n        )\n        (stochastic_depth): StochasticDepth(p=0.05, mode=row)\n      )\n      (1): MBConv(\n        (block): Sequential(\n          (0): Conv2dNormActivation(\n            (0): Conv2d(128, 512, kernel_size=(1, 1), stride=(1, 1), bias=False)\n            (1): BatchNorm2d(512, eps=0.001, momentum=0.1, affine=True, track_running_stats=True)\n            (2): SiLU(inplace=True)\n          )\n          (1): Conv2dNormActivation(\n            (0): Conv2d(512, 512, kernel_size=(3, 3), stride=(1, 1), padding=(1, 1), groups=512, bias=False)\n            (1): BatchNorm2d(512, eps=0.001, momentum=0.1, affine=True, track_running_stats=True)\n            (2): SiLU(inplace=True)\n          )\n          (2): SqueezeExcitation(\n            (avgpool): AdaptiveAvgPool2d(output_size=1)\n            (fc1): Conv2d(512, 32, kernel_size=(1, 1), stride=(1, 1))\n            (fc2): Conv2d(32, 512, kernel_size=(1, 1), stride=(1, 1))\n            (activation): SiLU(inplace=True)\n            (scale_activation): Sigmoid()\n          )\n          (3): Conv2dNormActivation(\n            (0): Conv2d(512, 128, kernel_size=(1, 1), stride=(1, 1), bias=False)\n            (1): BatchNorm2d(128, eps=0.001, momentum=0.1, affine=True, track_running_stats=True)\n          )\n        )\n        (stochastic_depth): StochasticDepth(p=0.05500000000000001, mode=row)\n      )\n      (2): MBConv(\n        (block): Sequential(\n          (0): Conv2dNormActivation(\n            (0): Conv2d(128, 512, kernel_size=(1, 1), stride=(1, 1), bias=False)\n            (1): BatchNorm2d(512, eps=0.001, momentum=0.1, affine=True, track_running_stats=True)\n            (2): SiLU(inplace=True)\n          )\n          (1): Conv2dNormActivation(\n            (0): Conv2d(512, 512, kernel_size=(3, 3), stride=(1, 1), padding=(1, 1), groups=512, bias=False)\n            (1): BatchNorm2d(512, eps=0.001, momentum=0.1, affine=True, track_running_stats=True)\n            (2): SiLU(inplace=True)\n          )\n          (2): SqueezeExcitation(\n            (avgpool): AdaptiveAvgPool2d(output_size=1)\n            (fc1): Conv2d(512, 32, kernel_size=(1, 1), stride=(1, 1))\n            (fc2): Conv2d(32, 512, kernel_size=(1, 1), stride=(1, 1))\n            (activation): SiLU(inplace=True)\n            (scale_activation): Sigmoid()\n          )\n          (3): Conv2dNormActivation(\n            (0): Conv2d(512, 128, kernel_size=(1, 1), stride=(1, 1), bias=False)\n            (1): BatchNorm2d(128, eps=0.001, momentum=0.1, affine=True, track_running_stats=True)\n          )\n        )\n        (stochastic_depth): StochasticDepth(p=0.06000000000000001, mode=row)\n      )\n      (3): MBConv(\n        (block): Sequential(\n          (0): Conv2dNormActivation(\n            (0): Conv2d(128, 512, kernel_size=(1, 1), stride=(1, 1), bias=False)\n            (1): BatchNorm2d(512, eps=0.001, momentum=0.1, affine=True, track_running_stats=True)\n            (2): SiLU(inplace=True)\n          )\n          (1): Conv2dNormActivation(\n            (0): Conv2d(512, 512, kernel_size=(3, 3), stride=(1, 1), padding=(1, 1), groups=512, bias=False)\n            (1): BatchNorm2d(512, eps=0.001, momentum=0.1, affine=True, track_running_stats=True)\n            (2): SiLU(inplace=True)\n          )\n          (2): SqueezeExcitation(\n            (avgpool): AdaptiveAvgPool2d(output_size=1)\n            (fc1): Conv2d(512, 32, kernel_size=(1, 1), stride=(1, 1))\n            (fc2): Conv2d(32, 512, kernel_size=(1, 1), stride=(1, 1))\n            (activation): SiLU(inplace=True)\n            (scale_activation): Sigmoid()\n          )\n          (3): Conv2dNormActivation(\n            (0): Conv2d(512, 128, kernel_size=(1, 1), stride=(1, 1), bias=False)\n            (1): BatchNorm2d(128, eps=0.001, momentum=0.1, affine=True, track_running_stats=True)\n          )\n        )\n        (stochastic_depth): StochasticDepth(p=0.065, mode=row)\n      )\n      (4): MBConv(\n        (block): Sequential(\n          (0): Conv2dNormActivation(\n            (0): Conv2d(128, 512, kernel_size=(1, 1), stride=(1, 1), bias=False)\n            (1): BatchNorm2d(512, eps=0.001, momentum=0.1, affine=True, track_running_stats=True)\n            (2): SiLU(inplace=True)\n          )\n          (1): Conv2dNormActivation(\n            (0): Conv2d(512, 512, kernel_size=(3, 3), stride=(1, 1), padding=(1, 1), groups=512, bias=False)\n            (1): BatchNorm2d(512, eps=0.001, momentum=0.1, affine=True, track_running_stats=True)\n            (2): SiLU(inplace=True)\n          )\n          (2): SqueezeExcitation(\n            (avgpool): AdaptiveAvgPool2d(output_size=1)\n            (fc1): Conv2d(512, 32, kernel_size=(1, 1), stride=(1, 1))\n            (fc2): Conv2d(32, 512, kernel_size=(1, 1), stride=(1, 1))\n            (activation): SiLU(inplace=True)\n            (scale_activation): Sigmoid()\n          )\n          (3): Conv2dNormActivation(\n            (0): Conv2d(512, 128, kernel_size=(1, 1), stride=(1, 1), bias=False)\n            (1): BatchNorm2d(128, eps=0.001, momentum=0.1, affine=True, track_running_stats=True)\n          )\n        )\n        (stochastic_depth): StochasticDepth(p=0.07, mode=row)\n      )\n      (5): MBConv(\n        (block): Sequential(\n          (0): Conv2dNormActivation(\n            (0): Conv2d(128, 512, kernel_size=(1, 1), stride=(1, 1), bias=False)\n            (1): BatchNorm2d(512, eps=0.001, momentum=0.1, affine=True, track_running_stats=True)\n            (2): SiLU(inplace=True)\n          )\n          (1): Conv2dNormActivation(\n            (0): Conv2d(512, 512, kernel_size=(3, 3), stride=(1, 1), padding=(1, 1), groups=512, bias=False)\n            (1): BatchNorm2d(512, eps=0.001, momentum=0.1, affine=True, track_running_stats=True)\n            (2): SiLU(inplace=True)\n          )\n          (2): SqueezeExcitation(\n            (avgpool): AdaptiveAvgPool2d(output_size=1)\n            (fc1): Conv2d(512, 32, kernel_size=(1, 1), stride=(1, 1))\n            (fc2): Conv2d(32, 512, kernel_size=(1, 1), stride=(1, 1))\n            (activation): SiLU(inplace=True)\n            (scale_activation): Sigmoid()\n          )\n          (3): Conv2dNormActivation(\n            (0): Conv2d(512, 128, kernel_size=(1, 1), stride=(1, 1), bias=False)\n            (1): BatchNorm2d(128, eps=0.001, momentum=0.1, affine=True, track_running_stats=True)\n          )\n        )\n        (stochastic_depth): StochasticDepth(p=0.075, mode=row)\n      )\n    )\n    (5): Sequential(\n      (0): MBConv(\n        (block): Sequential(\n          (0): Conv2dNormActivation(\n            (0): Conv2d(128, 768, kernel_size=(1, 1), stride=(1, 1), bias=False)\n            (1): BatchNorm2d(768, eps=0.001, momentum=0.1, affine=True, track_running_stats=True)\n            (2): SiLU(inplace=True)\n          )\n          (1): Conv2dNormActivation(\n            (0): Conv2d(768, 768, kernel_size=(3, 3), stride=(1, 1), padding=(1, 1), groups=768, bias=False)\n            (1): BatchNorm2d(768, eps=0.001, momentum=0.1, affine=True, track_runnin…
   )\n          (2): SqueezeExcitation(\n            (avgpool): AdaptiveAvgPool2d(output_size=1)\n            (fc1): Conv2d(1536, 64, kernel_size=(1, 1), stride=(1, 1))\n            (fc2): Conv2d(64, 1536, kernel_size=(1, 1), stride=(1, 1))\n            (activation): SiLU(inplace=True)\n            (scale_activation): Sigmoid()\n          )\n          (3): Conv2dNormActivation(\n            (0): Conv2d(1536, 256, kernel_size=(1, 1), stride=(1, 1), bias=False)\n            (1): BatchNorm2d(256, eps=0.001, momentum=0.1, affine=True, track_running_stats=True)\n          )\n        )\n        (stochastic_depth): StochasticDepth(p=0.13, mode=row)\n      )\n      (2): MBConv(\n        (block): Sequential(\n          (0): Conv2dNormActivation(\n            (0): Conv2d(256, 1536, kernel_size=(1, 1), stride=(1, 1), bias=False)\n            (1): BatchNorm2d(1536, eps=0.001, momentum=0.1, affine=True, track_running_stats=True)\n            (2): SiLU(inplace=True)\n          )\n          (1): Conv2dNormActivation(\n            (0): Conv2d(1536, 1536, kernel_size=(3, 3), stride=(1, 1), padding=(1, 1), groups=1536, bias=False)\n            (1): BatchNorm2d(1536, eps=0.001, momentum=0.1, affine=True, track_running_stats=True)\n            (2): SiLU(inplace=True)\n          )\n          (2): SqueezeExcitation(\n            (avgpool): AdaptiveAvgPool2d(output_size=1)\n            (fc1): Conv2d(1536, 64, kernel_size=(1, 1), stride=(1, 1))\n            (fc2): Conv2d(64, 1536, kernel_size=(1, 1), stride=(1, 1))\n            (activation): SiLU(inplace=True)\n            (scale_activation): Sigmoid()\n          )\n          (3): Conv2dNormActivation(\n            (0): Conv2d(1536, 256, kernel_size=(1, 1), stride=(1, 1), bias=False)\n            (1): BatchNorm2d(256, eps=0.001, momentum=0.1, affine=True, track_running_stats=True)\n          )\n        )\n        (stochastic_depth): StochasticDepth(p=0.135, mode=row)\n      )\n      (3): MBConv(\n        (block): Sequential(\n          (0): Conv2dNormActivation(\n            (0): Conv2d(256, 1536, kernel_size=(1, 1), stride=(1, 1), bias=False)\n            (1): BatchNorm2d(1536, eps=0.001, momentum=0.1, affine=True, track_running_stats=True)\n            (2): SiLU(inplace=True)\n          )\n          (1): Conv2dNormActivation(\n            (0): Conv2d(1536, 1536, kernel_size=(3, 3), stride=(1, 1), padding=(1, 1), groups=1536, bias=False)\n            (1): BatchNorm2d(1536, eps=0.001, momentum=0.1, affine=True, track_running_stats=True)\n            (2): SiLU(inplace=True)\n          )\n          (2): SqueezeExcitation(\n            (avgpool): AdaptiveAvgPool2d(output_size=1)\n            (fc1): Conv2d(1536, 64, kernel_size=(1, 1), stride=(1, 1))\n            (fc2): Conv2d(64, 1536, kernel_size=(1, 1), stride=(1, 1))\n            (activation): SiLU(inplace=True)\n            (scale_activation): Sigmoid()\n          )\n          (3): Conv2dNormActivation(\n            (0): Conv2d(1536, 256, kernel_size=(1, 1), stride=(1, 1), bias=False)\n            (1): BatchNorm2d(256, eps=0.001, momentum=0.1, affine=True, track_running_stats=True)\n          )\n        )\n        (stochastic_depth): StochasticDepth(p=0.14, mode=row)\n      )\n      (4): MBConv(\n        (block): Sequential(\n          (0): Conv2dNormActivation(\n            (0): Conv2d(256, 1536, kernel_size=(1, 1), stride=(1, 1), bias=False)\n            (1): BatchNorm2d(1536, eps=0.001, momentum=0.1, affine=True, track_running_stats=True)\n            (2): SiLU(inplace=True)\n          )\n          (1): Conv2dNormActivation(\n            (0): Conv2d(1536, 1536, kernel_size=(3, 3), stride=(1, 1), padding=(1, 1), groups=1536, bias=False)\n            (1): BatchNorm2d(1536, eps=0.001, momentum=0.1, affine=True, track_running_stats=True)\n            (2): SiLU(inplace=True)\n          )\n          (2): SqueezeExcitation(\n            (avgpool): AdaptiveAvgPool2d(output_size=1)\n            (fc1): Conv2d(1536, 64, kernel_size=(1, 1), stride=(1, 1))\n            (fc2): Conv2d(64, 1536, kernel_size=(1, 1), stride=(1, 1))\n            (activation): SiLU(inplace=True)\n            (scale_activation): Sigmoid()\n          )\n          (3): Conv2dNormActivation(\n            (0): Conv2d(1536, 256, kernel_size=(1, 1), stride=(1, 1), bias=False)\n            (1): BatchNorm2d(256, eps=0.001, momentum=0.1, affine=True, track_running_stats=True)\n          )\n        )\n        (stochastic_depth): StochasticDepth(p=0.14500000000000002, mode=row)\n      )\n      (5): MBConv(\n        (block): Sequential(\n          (0): Conv2dNormActivation(\n            (0): Conv2d(256, 1536, kernel_size=(1, 1), stride=(1, 1), bias=False)\n            (1): BatchNorm2d(1536, eps=0.001, momentum=0.1, affine=True, track_running_stats=True)\n            (2): SiLU(inplace=True)\n          )\n          (1): Conv2dNormActivation(\n            (0): Conv2d(1536, 1536, kernel_size=(3, 3), stride=(1, 1), padding=(1, 1), groups=1536, bias=False)\n            (1): BatchNorm2d(1536, eps=0.001, momentum=0.1, affine=True, track_running_stats=True)\n            (2): SiLU(inplace=True)\n          )\n          (2): SqueezeExcitation(\n            (avgpool): AdaptiveAvgPool2d(output_size=1)\n            (fc1): Conv2d(1536, 64, kernel_size=(1, 1), stride=(1, 1))\n            (fc2): Conv2d(64, 1536, kernel_size=(1, 1), stride=(1, 1))\n            (activation): SiLU(inplace=True)\n            (scale_activation): Sigmoid()\n          )\n          (3): Conv2dNormActivation(\n            (0): Conv2d(1536, 256, kernel_size=(1, 1), stride=(1, 1), bias=False)\n            (1): BatchNorm2d(256, eps=0.001, momentum=0.1, affine=True, track_running_stats=True)\n          )\n        )\n        (stochastic_depth): StochasticDepth(p=0.15, mode=row)\n      )\n      (6): MBConv(\n        (block): Sequential(\n          (0): Conv2dNormActivation(\n            (0): Conv2d(256, 1536, kernel_size=(1, 1), stride=(1, 1), bias=False)\n            (1): BatchNorm2d(1536, eps=0.001, momentum=0.1, affine=True, track_running_stats=True)\n            (2): SiLU(inplace=True)\n          )\n          (1): Conv2dNormActivation(\n            (0): Conv2d(1536, 1536, kernel_size=(3, 3), stride=(1, 1), padding=(1, 1), groups=1536, bias=False)\n            (1): BatchNorm2d(1536, eps=0.001, momentum=0.1, affine=True, track_running_stats=True)\n            (2): SiLU(inplace=True)\n          )\n          (2): SqueezeExcitation(\n            (avgpool): AdaptiveAvgPool2d(output_size=1)\n            (fc1): Conv2d(1536, 64, kernel_size=(1, 1), stride=(1, 1))\n            (fc2): Conv2d(64, 1536, kernel_size=(1, 1), stride=(1, 1))\n            (activation): SiLU(inplace=True)\n            (scale_activation): Sigmoid()\n          )\n          (3): Conv2dNormActivation(\n            (0): Conv2d(1536, 256, kernel_size=(1, 1), stride=(1, 1), bias=False)\n            (1): BatchNorm2d(256, eps=0.001, momentum=0.1, affine=True, track_running_stats=True)\n          )\n        )\n        (stochastic_depth): StochasticDepth(p=0.155, mode=row)\n      )\n      (7): MBConv(\n        (block): Sequential(\n          (0): Conv2dNormActivation(\n            (0): Conv2d(256, 1536, kernel_size=(1, 1), stride=(1, 1), bias=False)\n            (1): BatchNorm2d(1536, eps=0.001, momentum=0.1, affine=True, track_running_stats=True)\n            (2): SiLU(inplace=True)\n          )\n          (1): Conv2dNormActivation(\n            (0): Conv2d(1536, 1536, kernel_size=(3, 3), stride=(1, 1), padding=(1, 1), groups=1536, bias=False)\n            (1): BatchNorm2d(1536, eps=0.001, momentum=0.1, affine=True, track_running_stats=True)\n            (2): SiLU(inplace=True)\n          )\n          (2): SqueezeExcitation(\n            (avgpool): AdaptiveAvgPool2d(output_size=1)\n            (fc1): Conv2d(1536, 64, kernel_size=(1, 1), stride=(1, 1))\n            (fc2): Conv2d(64, 1536, kernel_size=(1, 1), stride=(1, 1))\n            (activation): SiLU(inplace=True)\n            (scale_activation): Sigmoid()\n          )\n          (3): Conv2dNormActivation(\n            (0): Conv2d(1536, 256, kernel_size=(1, 1), stride=(1, 1), bias=False)\n            (1): BatchNorm2d(256, eps=0.001, momentum=0.1, affine=True, track_running_stats=True)\n          )\n        )\n        (stochastic_depth): StochasticDepth(p=0.16, mode=row)\n      )\n      (8): MBConv(\n        (block): Sequential(\n          (0): Conv2dNormActivation(\n            (0): Conv2d(256, 1536, kernel_size=(1, 1), stride=(1, 1), bias=False)\n            (1): BatchNorm2d(1536, eps=0.001, momentum=0.1, affine=True, track_running_stats=True)\n            (2): SiLU(inplace=True)\n          )\n          (1): Conv2dNormActivation(\n            (0): Conv2d(1536, 1536, kernel_size=(3, 3), stride=(1, 1), padding=(1, 1), groups=1536, bias=False)\n            (1): BatchNorm2d(1536, eps=0.001, momentum=0.1, affine=True, track_running_stats=True)\n            (2): SiLU(inplace=True)\n          )\n          (2): SqueezeExcitation(\n            (avgpool): AdaptiveAvgPool2d(output_size=1)\n            (fc1): Conv2d(1536, 64, kernel_size=(1, 1), stride=(1, 1))\n            (fc2): Conv2d(64, 1536, kernel_size=(1, 1), stride=(1, 1))\n            (activation): SiLU(inplace=True)\n            (scale_activation): Sigmoid()\n          )\n          (3): Conv2dNormActivation(\n            (0): Conv2d(1536, 256, kernel_size=(1, 1), stride=(1, 1), bias=False)\n            (1): BatchNorm2d(256, eps=0.001, momentum=0.1, affine=True, track_running_stats=True)\n          )\n        )\n        (stochastic_depth): StochasticDepth(p=0.165, mode=row)\n      )\n      (9): MBConv(\n        (block): Sequential(\n          (0): Conv2dNormActivation(\n            (0): Conv2d(256, 1536, kernel_size=(1, 1), stride=(1, 1), bias=False)\n            (1): BatchNorm2d(1536, eps=0.001, momentum=0.1, affine=True, track_running_stats=True)\n            (2): SiLU(inplace=True)\n          )\n          (1): Conv2dNormActivation(\n            (0): Conv2d(1536, 1536, kernel_size=(3, 3), stride=(1, 1), padding=(1, 1), groups=1536, bias=False)\n            (1): BatchNorm2d(1536, eps=0.001, momentum=0.1, affine=True, track_running_stats=True)\n            (2): SiLU(inplace=True)\n          )\n          (2): SqueezeExcitation(\n            (avgpool): AdaptiveAvgPool2d(output_size=1)\n            (fc1): Conv2d(1536, 64, kernel_size=(1, 1), stride=(1, 1))\n            (fc2): Conv2d(64, 1536, kernel_size=(1, 1), stride=(1, 1))\n            (activation): SiLU(inplace=True)\n            (scale_activation): Sigmoid()\n          )\n          (3): Conv2dNormActivation(\n            (0): Conv2d(1536, 256, kernel_size=(1, 1), stride=(1, 1), bias=False)\n            (1): BatchNorm2d(256, eps=0.001, momentum=0.1, affine=True, track_running_stats=True)\n          )\n        )\n        (stochastic_depth): StochasticDepth(p=0.17, mode=row)\n      )\n      (10): MBConv(\n        (block): Sequential(\n          (0): Conv2dNormActivation(\n            (0): Conv2d(256, 1536, kernel_size=(1, 1), stride=(1, 1), bias=False)\n            (1): BatchNorm2d(1536, eps=0.001, momentum=0.1, affine=True, track_running_stats=True)\n            (2): SiLU(inplace=True)\n          )\n          (1): Conv2dNormActivation(\n            (0): Conv2d(1536, 1536, kernel_size=(3, 3), stride=(1, 1), padding=(1, 1), groups=1536, bias=False)\n            (1): BatchNorm2d(1536, eps=0.001, momentum=0.1, affine=True, track_running_stats=True)\n            (2): SiLU(inplace=True)\n          )\n          (2): SqueezeExcitation(\n            (avgpool): AdaptiveAvgPool2d(output_size=1)\n            (fc1): Conv2d(1536, 64, kernel_size=(1, 1), stride=(1, 1))\n            (fc2): Conv2d(64, 1536, kernel_size=(1, 1), stride=(1, 1))\n            (activation): SiLU(inplace=True)\n            (scale_activation): Sigmoid()\n          )\n          (3): Conv2dNormActivation(\n            (0): Conv2d(1536, 256, kernel_size=(1, 1), stride=(1, 1), bias=False)\n            (1): BatchNorm2d(256, eps=0.001, momentum=0.1, affine=True, track_running_stats=True)\n          )\n        )\n        (stochastic_depth): StochasticDepth(p=0.175, mode=row)\n      )\n      (11): MBConv(\n        (block): Sequential(\n          (0): Conv2dNormActivation(\n            (0): Conv2d(256, 1536, kernel_size=(1, 1), stride=(1, 1), bias=False)\n            (1): BatchNorm2d(1536, eps=0.001, momentum=0.1, affine=True, track_running_stats=True)\n            (2): SiLU(inplace=True)\n          )\n          (1): Conv2dNormActivation(\n            (0): Conv2d(1536, 1536, kernel_size=(3, 3), stride=(1, 1), padding=(1, 1), groups=1536, bias=False)\n            (1): BatchNorm2d(1536, eps=0.001, momentum=0.1, affine=True, track_running_stats=True)\n            (2): SiLU(inplace=True)\n          )\n          (2): SqueezeExcitation(\n            (avgpool): AdaptiveAvgPool2d(output_size=1)\n            (fc1): Conv2d(1536, 64, kernel_size=(1, 1), stride=(1, 1))\n            (fc2): Conv2d(64, 1536, kernel_size=(1, 1), stride=(1, 1))\n            (activation): SiLU(inplace=True)\n            (scale_activation): Sigmoid()\n          )\n          (3): Conv2dNormActivation(\n            (0): Conv2d(1536, 256, kernel_size=(1, 1), stride=(1, 1), bias=False)\n            (1): BatchNorm2d(256, eps=0.001, momentum=0.1, affine=True, track_running_stats=True)\n          )\n        )\n        (stochastic_depth): StochasticDepth(p=0.18, mode=row)\n      )\n      (12): MBConv(\n        (block): Sequential(\n          (0): Conv2dNormActivation(\n            (0): Conv2d(256, 1536, kernel_size=(1, 1), stride=(1, 1), bias=False)\n            (1): BatchNorm2d(1536, eps=0.001, momentum=0.1, affine=True, track_running_stats=True)\n            (2): SiLU(inplace=True)\n          )\n          (1): Conv2dNormActivation(\n            (0): Conv2d(1536, 1536, kernel_size=(3, 3), stride=(1, 1), padding=(1, 1), groups=1536, bias=False)\n            (1): BatchNorm2d(1536, eps=0.001, momentum=0.1, affine=True, track_running_stats=True)\n            (2): SiLU(inplace=True)\n          )\n          (2): SqueezeExcitation(\n            (avgpool): AdaptiveAvgPool2d(output_size=1)\n            (fc1): Conv2d(1536, 64, kernel_size=(1, 1), stride=(1, 1))\n            (fc2): Conv2d(64, 1536, kernel_size=(1, 1), stride=(1, 1))\n            (activation): SiLU(inplace=True)\n            (scale_activation): Sigmoid()\n          )\n          (3): Conv2dNormActivation(\n            (0): Conv2d(1536, 256, kernel_size=(1, 1), stride=(1, 1), bias=False)\n            (1): BatchNorm2d(256, eps=0.001, momentum=0.1, affine=True, track_running_stats=True)\n          )\n        )\n        (stochastic_depth): StochasticDepth(p=0.185, mode=row)\n      )\n      (13): MBConv(\n        (block): Sequential(\n          (0): Conv2dNormActivation(\n            (0): Conv2d(256, 1536, kernel_size=(1, 1), stride=(1, 1), bias=False)\n            (1): BatchNorm2d(1536, eps=0.001, momentum=0.1, affine=True, track_running_stats=True)\n            (2): SiLU(inplace=True)\n          )\n          (1): Conv2dNormActivation(\n            (0): Conv2d(1536, 1536, kernel_size=(3, 3), stride=(1, 1), padding=(1, 1), groups=1536, bias=False)\n            (1): BatchNorm2d(1536, eps=0.001, momentum=0.1, affine=True, track_running_stats=True)\n            (2): SiLU(inplace=True)\n          )\n          (2): SqueezeExcitation(\n            (avgpool): AdaptiveAvgPool2d(output_size=1)\n            (fc1): Conv2d(1536, 64, kernel_size=(1, 1), stride=(1, 1))\n            (fc2): Conv2d(64, 1536, kernel_size=(1, 1), stride=(1, 1))\n            (activation): SiLU(inplace=True)\n            (scale_activation): Sigmoid()\n          )\n          (3): Conv2dNormActivation(\n            (0): Conv2d(1536, 256, kernel_size=(1, 1), stride=(1, 1), bias=False)\n            (1): BatchNorm2d(256, eps=0.001, momentum=0.1, affine=True, track_running_stats=True)\n          )\n        )\n        (stochastic_depth): StochasticDepth(p=0.19, mode=row)\n      )\n      (14): MBConv(\n        (block): Sequential(\n          (0): Conv2dNormActivation(\n            (0): Conv2d(256, 1536, kernel_size=(1, 1), stride=(1, 1), bias=False)\n            (1): BatchNorm2d(1536, eps=0.001, momentum=0.1, affine=True, track_running_stats=True)\n            (2): SiLU(inplace=True)\n          )\n          (1): Conv2dNormActivation(\n            (0): Conv2d(1536, 1536, kernel_size=(3, 3), stride=(1, 1), padding=(1, 1), groups=1536, bias=False)\n            (1): BatchNorm2d(1536, eps=0.001, momentum=0.1, affine=True, track_running_stats=True)\n            (2): SiLU(inplace=True)\n          )\n          (2): SqueezeExcitation(\n            (avgpool): AdaptiveAvgPool2d(output_size=1)\n            (fc1): Conv2d(1536, 64, kernel_size=(1, 1), stride=(1, 1))\n            (fc2): Conv2d(64, 1536, kernel_size=(1, 1), stride=(1, 1))\n            (activation): SiLU(inplace=True)\n            (scale_activation): Sigmoid()\n          )\n          (3): Conv2dNormActivation(\n            (0): Conv2d(1536, 256, kernel_size=(1, 1), stride=(1, 1), bias=False)\n            (1): BatchNorm2d(256, eps=0.001, momentum=0.1, affine=True, track_running_stats=True)\n          )\n        )\n        (stochastic_depth): StochasticDepth(p=0.195, mode=row)\n      )\n    )\n    (7): Conv2dNormActivation(\n      (0): Conv2d(256, 1280, kernel_size=(1, 1), stride=(1, 1), bias=False)\n      (1): BatchNorm2d(1280, eps=0.001, momentum=0.1, affine=True, track_running_stats=True)\n      (2): SiLU(inplace=True)\n    )\n  )\n  (avgpool): AdaptiveAvgPool2d(output_size=1)\n  (classifier): Sequential(\n    (0): Dropout(p=0.2, inplace=False)\n    (1): Linear(in_features=1280, out_features=128, bias=True)\n    (2): ReLU()\n    (3): Linear(in_features=128, out_features=7, bias=True)\n  )\n)"
}{
    "exp_name": "DenseNet_16 10 0.001 Adam  20231021_033042",
    "model_architect": "DenseNet(\n  (features): Sequential(\n    (conv0): Conv2d(3, 64, kernel_size=(7, 7), stride=(2, 2), padding=(3, 3), bias=False)\n    (norm0): BatchNorm2d(64, eps=1e-05, momentum=0.1, affine=True, track_running_stats=True)\n    (relu0): ReLU(inplace=True)\n    (pool0): MaxPool2d(kernel_size=3, stride=2, padding=1, dilation=1, ceil_mode=False)\n    (denseblock1): _DenseBlock(\n      (denselayer1): _DenseLayer(\n        (norm1): BatchNorm2d(64, eps=1e-05, momentum=0.1, affine=True, track_running_stats=True)\n        (relu1): ReLU(inplace=True)\n        (conv1): Conv2d(64, 128, kernel_size=(1, 1), stride=(1, 1), bias=False)\n        (norm2): BatchNorm2d(128, eps=1e-05, momentum=0.1, affine=True, track_running_stats=True)\n        (relu2): ReLU(inplace=True)\n        (conv2): Conv2d(128, 32, kernel_size=(3, 3), stride=(1, 1), padding=(1, 1), bias=False)\n      )\n      (denselayer2): _DenseLayer(\n        (norm1): BatchNorm2d(96, eps=1e-05, momentum=0.1, affine=True, track_running_stats=True)\n        (relu1): ReLU(inplace=True)\n        (conv1): Conv2d(96, 128, kernel_size=(1, 1), stride=(1, 1), bias=False)\n        (norm2): BatchNorm2d(128, eps=1e-05, momentum=0.1, affine=True, track_running_stats=True)\n        (relu2): ReLU(inplace=True)\n        (conv2): Conv2d(128, 32, kernel_size=(3, 3), stride=(1, 1), padding=(1, 1), bias=False)\n      )\n      (denselayer3): _DenseLayer(\n        (norm1): BatchNorm2d(128, eps=1e-05, momentum=0.1, affine=True, track_running_stats=True)\n        (relu1): ReLU(inplace=True)\n        (conv1): Conv2d(128, 128, kernel_size=(1, 1), stride=(1, 1), bias=False)\n        (norm2): BatchNorm2d(128, eps=1e-05, momentum=0.1, affine=True, track_running_stats=True)\n        (relu2): ReLU(inplace=True)\n        (conv2): Conv2d(128, 32, kernel_size=(3, 3), stride=(1, 1), padding=(1, 1), bias=False)\n      )\n      (denselayer4): _DenseLayer(\n        (norm1): BatchNorm2d(160, eps=1e-05, momentum=0.1, affine=True, track_running_stats=True)\n        (relu1): ReLU(inplace=True)\n        (conv1): Conv2d(160, 128, kernel_size=(1, 1), stride=(1, 1), bias=False)\n        (norm2): BatchNorm2d(128, eps=1e-05, momentum=0.1, affine=True, track_running_stats=True)\n        (relu2): ReLU(inplace=True)\n        (conv2): Conv2d(128, 32, kernel_size=(3, 3), stride=(1, 1), padding=(1, 1), bias=False)\n      )\n      (denselayer5): _DenseLayer(\n        (norm1): BatchNorm2d(192, eps=1e-05, momentum=0.1, affine=True, track_running_stats=True)\n        (relu1): ReLU(inplace=True)\n        (conv1): Conv2d(192, 128, kernel_size=(1, 1), stride=(1, 1), bias=False)\n        (norm2): BatchNorm2d(128, eps=1e-05, momentum=0.1, affine=True, track_running_stats=True)\n        (relu2): ReLU(inplace=True)\n        (conv2): Conv2d(128, 32, kernel_size=(3, 3), stride=(1, 1), padding=(1, 1), bias=False)\n      )\n      (denselayer6): _DenseLayer(\n        (norm1): BatchNorm2d(224, eps=1e-05, momentum=0.1, affine=True, track_running_stats=True)\n        (relu1): ReLU(inplace=True)\n        (conv1): Conv2d(224, 128, kernel_size=(1, 1), stride=(1, 1), bias=False)\n        (norm2): BatchNorm2d(128, eps=1e-05, momentum=0.1, affine=True, track_running_stats=True)\n        (relu2): ReLU(inplace=True)\n        (conv2): Conv2d(128, 32, kernel_size=(3, 3), stride=(1, 1), padding=(1, 1), bias=False)\n      )\n    )\n    (transition1): _Transition(\n      (norm): BatchNorm2d(256, eps=1e-05, momentum=0.1, affine=True, track_running_stats=True)\n      (relu): ReLU(inplace=True)\n      (conv): Conv2d(256, 128, kernel_size=(1, 1), stride=(1, 1), bias=False)\n      (pool): AvgPool2d(kernel_size=2, stride=2, padding=0)\n    )\n    (denseblock2): _DenseBlock(\n      (denselayer1): _DenseLayer(\n        (norm1): BatchNorm2d(128, eps=1e-05, momentum=0.1, affine=True, track_running_stats=True)\n        (relu1): ReLU(inplace=True)\n        (conv1): Conv2d(128, 128, kernel_size=(1, 1), stride=(1, 1), bias=False)\n        (norm2): BatchNorm2d(128, eps=1e-05, momentum=0.1, affine=True, track_running_stats=True)\n        (relu2): ReLU(inplace=True)\n        (conv2): Conv2d(128, 32, kernel_size=(3, 3), stride=(1, 1), padding=(1, 1), bias=False)\n      )\n      (denselayer2): _DenseLayer(\n        (norm1): BatchNorm2d(160, eps=1e-05, momentum=0.1, affine=True, track_running_stats=True)\n        (relu1): ReLU(inplace=True)\n        (conv1): Conv2d(160, 128, kernel_size=(1, 1), stride=(1, 1), bias=False)\n        (norm2): BatchNorm2d(128, eps=1e-05, momentum=0.1, affine=True, track_running_stats=True)\n        (relu2): ReLU(inplace=True)\n        (conv2): Conv2d(128, 32, kernel_size=(3, 3), stride=(1, 1), padding=(1, 1), bias=False)\n      )\n      (denselayer3): _DenseLayer(\n        (norm1): BatchNorm2d(192, eps=1e-05, momentum=0.1, affine=True, track_running_stats=True)\n        (relu1): ReLU(inplace=True)\n        (conv1): Conv2d(192, 128, kernel_size=(1, 1), stride=(1, 1), bias=False)\n        (norm2): BatchNorm2d(128, eps=1e-05, momentum=0.1, affine=True, track_running_stats=True)\n        (relu2): ReLU(inplace=True)\n        (conv2): Conv2d(128, 32, kernel_size=(3, 3), stride=(1, 1), padding=(1, 1), bias=False)\n      )\n      (denselayer4): _DenseLayer(\n        (norm1): BatchNorm2d(224, eps=1e-05, momentum=0.1, affine=True, track_running_stats=True)\n        (relu1): ReLU(inplace=True)\n        (conv1): Conv2d(224, 128, kernel_size=(1, 1), stride=(1, 1), bias=False)\n        (norm2): BatchNorm2d(128, eps=1e-05, momentum=0.1, affine=True, track_running_stats=True)\n        (relu2): ReLU(inplace=True)\n        (conv2): Conv2d(128, 32, kernel_size=(3, 3), stride=(1, 1), padding=(1, 1), bias=False)\n      )\n      (denselayer5): _DenseLayer(\n        (norm1): BatchNorm2d(256, eps=1e-05, momentum=0.1, affine=True, track_running_stats=True)\n        (relu1): ReLU(inplace=True)\n        (conv1): Conv2d(256, 128, kernel_size=(1, 1), stride=(1, 1), bias=False)\n        (norm2): BatchNorm2d(128, eps=1e-05, momentum=0.1, affine=True, track_running_stats=True)\n        (relu2): ReLU(inplace=True)\n        (conv2): Conv2d(128, 32, kernel_size=(3, 3), stride=(1, 1), padding=(1, 1), bias=False)\n      )\n      (denselayer6): _DenseLayer(\n        (norm1): BatchNorm2d(288, eps=1e-05, momentum=0.1, affine=True, track_running_stats=True)\n        (relu1): ReLU(inplace=True)\n        (conv1): Conv2d(288, 128, kernel_size=(1, 1), stride=(1, 1), bias=False)\n        (norm2): BatchNorm2d(128, eps=1e-05, momentum=0.1, affine=True, track_running_stats=True)\n        (relu2): ReLU(inplace=True)\n        (conv2): Conv2d(128, 32, kernel_size=(3, 3), stride=(1, 1), padding=(1, 1), bias=False)\n      )\n      (denselayer7): _DenseLayer(\n        (norm1): BatchNorm2d(320, eps=1e-05, momentum=0.1, affine=True, track_running_stats=True)\n        (relu1): ReLU(inplace=True)\n        (conv1): Conv2d(320, 128, kernel_size=(1, 1), stride=(1, 1), bias=False)\n        (norm2): BatchNorm2d(128, eps=1e-05, momentum=0.1, affine=True, track_running_stats=True)\n        (relu2): ReLU(inplace=True)\n        (conv2): Conv2d(128, 32, kernel_size=(3, 3), stride=(1, 1), padding=(1, 1), bias=False)\n      )\n      (denselayer8): _DenseLayer(\n        (norm1): BatchNorm2d(352, eps=1e-05, momentum=0.1, affine=True, track_running_stats=True)\n        (relu1): ReLU(inplace=True)\n        (conv1): Conv2d(352, 128, kernel_size=(1, 1), stride=(1, 1), bias=False)\n        (norm2): BatchNorm2d(128, eps=1e-05, momentum=0.1, affine=True, track_running_stats=True)\n        (relu2): ReLU(inplace=True)\n        (conv2): Conv2d(128, 32, kernel_size=(3, 3), stride=(1, 1), padding=(1, 1), bias=False)\n      )\n      (denselayer9): _DenseLayer(\n        (norm1): BatchNorm2d(384, eps=1e-05, momentum=0.1, affine=True, track_running_stats=True)\n        (relu1): ReLU(inplace=True)\n        (conv1): Conv2d(384, 128, kernel_size=(1, 1), stride=(1, 1), bias=False)\n        (norm2): BatchNorm2d(128, eps=1e-05, momentum=0.1, affine=True, track_running_stats=True)\n        (relu2): ReLU(inplace=True)\n        (conv2): Conv2d(128, 32, kernel_size=(3, 3), stride=(1, 1), padding=(1, 1), bias=False)\n      )\n      (denselayer10): _DenseLayer(\n        (norm1): BatchNorm2d(416, eps=1e-05, momentum=0.1, affine=True, track_running_stats=True)\n        (relu1): ReLU(inplace=True)\n        (conv1): Conv2d(416, 128, kernel_size=(1, 1), stride=(1, 1), bias=False)\n        (norm2): BatchNorm2d(128, eps=1e-05, momentum=0.1, affine=True, track_running_stats=True)\n        (relu2): ReLU(inplace=True)\n        (conv2): Conv2d(128, 32, kernel_size=(3, 3), stride=(1, 1), padding=(1, 1), bias=False)\n      )\n      (denselayer11): _DenseLayer(\n        (norm1): BatchNorm2d(448, eps=1e-05, momentum=0.1, affine=True, track_running_stats=True)\n        (relu1): ReLU(inplace=True)\n        (conv1): Conv2d(448, 128, kernel_size=(1, 1), stride=(1, 1), bias=False)\n        (norm2): BatchNorm2d(128, eps=1e-05, momentum=0.1, affine=True, track_running_stats=True)\n        (relu2): ReLU(inplace=True)\n        (conv2): Conv2d(128, 32, kernel_size=(3, 3), stride=(1, 1), padding=(1, 1), bias=False)\n      )\n      (denselayer12): _DenseLayer(\n        (norm1): BatchNorm2d(480, eps=1e-05, momentum=0.1, affine=True, track_running_stats=True)\n        (relu1): ReLU(inplace=True)\n        (conv1): Conv2d(480, 128, kernel_size=(1, 1), stride=(1, 1), bias=False)\n        (norm2): BatchNorm2d(128, eps=1e-05, momentum=0.1, affine=True, track_running_stats=True)\n        (relu2): ReLU(inplace=True)\n        (conv2): Conv2d(128, 32, kernel_size=(3, 3), stride=(1, 1), padding=(1, 1), bias=False)\n      )\n    )\n    (transition2): _Transition(\n      (norm): BatchNorm2d(512, eps=1e-05, momentum=0.1, affine=True, track_running_stats=True)\n      (relu): ReLU(inplace=True)\n      (conv): Conv2d(512, 256, kernel_size=(1, 1), stride=(1, 1), bias=False)\n      (pool): AvgPool2d(kernel_size=2, stride=2, padding=0)\n    )\n    (denseblock3): _DenseBlock(\n      (denselayer1): _DenseLayer(\n        (norm1): BatchNorm2d(256, eps=1e-05, momentum=0.1, affine=True, track_running_stats=True)\n        (relu1): ReLU(inplace=True)\n        (conv1): Conv2d(256, 128, kernel_size=(1, 1), stride=(1, 1), bias=False)\n        (norm2): BatchNorm2d(128, eps=1e-05, momentum=0.1, affine=True, track_running_stats=True)\n        (relu2): ReLU(inplace=True)\n        (conv2): Conv2d(128, 32, kernel_size=(3, 3), stride=(1, 1), padding=(1, 1), bias=False)\n      )\n      (denselayer2): _DenseLayer(\n        (norm1): BatchNorm2d(288, eps=1e-05, momentum=0.1, affine=True, track_running_stats=True)\n        (relu1): ReLU(inplace=True)\n        (conv1): Conv2d(288, 128, kernel_size=(1, 1), stride=(1, 1), bias=False)\n        (norm2): BatchNorm2d(128, eps=1e-05, momentum=0.1, affine=True, track_running_stats=True)\n        (relu2): ReLU(inplace=True)\n        (conv2): Conv2d(128, 32, kernel_size=(3, 3), stride=(1, 1), padding=(1, 1), bias=False)\n      )\n      (denselayer3): _DenseLayer(\n        (norm1): BatchNorm2d(320, eps=1e-05, momentum=0.1, affine=True, track_running_stats=True)\n        (relu1): ReLU(inplace=True)\n        (conv1): Conv2d(320, 128, kernel_size=(1, 1), stride=(1, 1), bias=False)\n        (norm2): BatchNorm2d(128, eps=1e-05, momentum=0.1, affine=True, track_running_stats=True)\n        (relu2): ReLU(inplace=True)\n        (conv2): Conv2d(128, 32, kernel_size=(3, 3), stride=(1, 1), padding=(1, 1), bias=False)\n      )\n      (denselayer4): _DenseLayer(\n        (norm1): BatchNorm2d(352, eps=1e-05, momentum=0.1, affine=True, track_running_stats=True)\n        (relu1): ReLU(inplace=True)\n        (conv1): Conv2d(352, 128, kernel_size=(1, 1), stride=(1, 1), bias=False)\n        (norm2): BatchNorm2d(128, eps=1e-05, momentum=0.1, affine=True, track_running_stats=True)\n        (relu2): ReLU(inplace=True)\n        (conv2): Conv2d(128, 32, kernel_size=(3, 3), stride=(1, 1), padding=(1, 1), bias=False)\n      )\n      (denselayer5): _DenseLayer(\n        (norm1): BatchNorm2d(384, eps=1e-05, momentum=0.1, affine=True, track_running_stats=True)\n        (relu1): ReLU(inplace=True)\n        (conv1): Conv2d(384, 128, kernel_size=(1, 1), stride=(1, 1), bias=False)\n        (norm2): BatchNorm2d(128, eps=1e-05, momentum=0.1, affine=True, track_running_stats=True)\n        (relu2): ReLU(inplace=True)\n        (conv2): Conv2d(128, 32, kernel_size=(3, 3), stride=(1, 1), padding=(1, 1), bias=False)\n      )\n      (denselayer6): _DenseLayer(\n        (norm1): BatchNorm2d(416, eps=1e-05, momentum=0.1, affine=True, track_running_stats=True)\n        (relu1): ReLU(inplace=True)\n        (conv1): Conv2d(416, 128, kernel_size=(1, 1), stride=(1, 1), bias=False)\n        (norm2): BatchNorm2d(128, eps=1e-05, momentum=0.1, affine=True, track_running_stats=True)\n        (relu2): ReLU(inplace=True)\n        (conv2): Conv2d(128, 32, kernel_size=(3, 3), stride=(1, 1), padding=(1, 1), bias=False)\n      )\n      (denselayer7): _DenseLayer(\n        (norm1): BatchNorm2d(448, eps=1e-05, momentum=0.1, affine=True, track_running_stats=True)\n        (relu1): ReLU(inplace=True)\n        (conv1): Conv2d(448, 128, kernel_size=(1, 1), stride=(1, 1), bias=False)\n        (norm2): BatchNorm2d(128, eps=1e-05, momentum=0.1, affine=True, track_running_stats=True)\n        (relu2): ReLU(inplace=True)\n        (conv2): Conv2d(128, 32, kernel_size=(3, 3), stride=(1, 1), padding=(1, 1), bias=False)\n      )\n      (denselayer8): _DenseLayer(\n        (norm1): BatchNorm2d(480, eps=1e-05, momentum=0.1, affine=True, track_running_stats=True)\n        (relu1): ReLU(inplace=True)\n        (conv1): Conv2d(480, 128, kernel_size=(1, 1), stride=(1, 1), bias=False)\n        (norm2): BatchNorm2d(128, eps=1e-05, momentum=0.1, affine=True, track_running_stats=True)\n        (relu2): ReLU(inplace=True)\n        (conv2): Conv2d(128, 32, kernel_size=(3, 3), stride=(1, 1), padding=(1, 1), bias=False)\n      )\n      (denselayer9): _DenseLayer(\n        (norm1): BatchNorm2d(512, eps=1e-05, momentum=0.1, affine=True, track_running_stats=True)\n        (relu1): ReLU(inplace=True)\n        (conv1): Conv2d(512, 128, kernel_size=(1, 1), stride=(1, 1), bias=False)\n        (norm2): BatchNorm2d(128, eps=1e-05, momentum=0.1, affine=True, track_running_stats=True)\n        (relu2): ReLU(inplace=True)\n        (conv2): Conv2d(128, 32, kernel_size=(3, 3), stride=(1, 1), padding=(1, 1), bias=False)\n      )\n      (denselayer10): _DenseLayer(\n        (norm1): BatchNorm2d(544, eps=1e-05, momentum=0.1, affine=True, track_running_stats=True)\n        (relu1): ReLU(inplace=True)\n        (conv1): Conv2d(544, 128, kernel_size=(1, 1), stride=(1, 1), bias=False)\n        (norm2): BatchNorm2d(128, eps=1e-05, momentum=0.1, affine=True, track_running_stats=True)\n        (relu2): ReLU(inplace=True)\n        (conv2): Conv2d(128, 32, kernel_size=(3, 3), stride=(1, 1), padding=(1, 1), bias=False)\n      )\n      (denselayer11): _DenseLayer(\n        (norm1): BatchNorm2d(576, eps=1e-05, momentum=0.1, affine=True, track_running_stats=True)\n        (relu1): ReLU(inplace=True)\n        (conv1): Conv2d(576, 128, kernel_size=(1, 1), stride=(1, 1), bias=False)\n        (norm2): BatchNorm2d(128, eps=1e-05, momentum=0.1, affine=True, track_running_stats=True)\n        (relu2): ReLU(inplace=True)\n        (conv2): Conv2d(128, 32, kernel_size=(3, 3), stride=(1, 1), padding=(1, 1), bias=False)\n      )\n      (denselayer12): _DenseLayer(\n        (norm1): BatchNorm2d(608, eps=1e-05, momentum=0.1, affine=True, track_running_stats=True)\n        (relu1): ReLU(inplace=True)\n        (conv1): Conv2d(608, 128, kernel_size=(1, 1), stride=(1, 1), bias=False)\n        (norm2): BatchNorm2d(128, eps=1e-05, momentum=0.1, affine=True, track_running_stats=True)\n        (relu2): ReLU(inplace=True)\n        (conv2): Conv2d(128, 32, kernel_size=(3, 3), stride=(1, 1), padding=(1, 1), bias=False)\n      )\n      (denselayer13): _DenseLayer(\n        (norm1): BatchNorm2d(640, eps=1e-05, momentum=0.1, affine=True, track_running_stats=True)\n        (relu1): ReLU(inplace=True)\n        (conv1): Conv2d(640, 128, kernel_size=(1, 1), stride=(1, 1), bias=False)\n        (norm2): BatchNorm2d(128, eps=1e-05, momentum=0.1, affine=True, track_running_stats=True)\n        (relu2): ReLU(inplace=True)\n        (conv2): Conv2d(128, 32, kernel_size=(3, 3), stride=(1, 1), padding=(1, 1), bias=False)\n      )\n      (denselayer14): _DenseLayer(\n        (norm1): BatchNorm2d(672, eps=1e-05, momentum=0.1, affine=True, track_running_stats=True)\n        (relu1): ReLU(inplace=True)\n        (conv1): Conv2d(672, 128, kernel_size=(1, 1), stride=(1, 1), bias=False)\n        (norm2): BatchNorm2d(128, eps=1e-05, momentum=0.1, affine=True, track_running_stats=True)\n        (relu2): ReLU(inplace=True)\n        (conv2): Conv2d(128, 32, kernel_size=(3, 3), stride=(1, 1), padding=(1, 1), bias=False)\n      )\n      (denselayer15): _DenseLayer(\n        (norm1): BatchNorm2d(704, eps=1e-05, momentum=0.1, affine=True, track_running_stats=True)\n        (relu1): ReLU(inplace=True)\n        (conv1): Conv2d(704, 128, kernel_size=(1, 1), stride=(1, 1), bias=False)\n        (norm2): BatchNorm2d(128, eps=1e-05, momentum=0.1, affine=True, track_running_stats=True)\n        (relu2): ReLU(inplace=True)\n        (conv2): Conv2d(128, 32, kernel_size=(3, 3), stride=(1, 1), padding=(1, 1), bias=False)\n      )\n      (denselayer16): _DenseLayer(\n        (norm1): BatchNorm2d(736, eps=1e-05, momentum=0.1, affine=True, track_running_stats=True)\n        (relu1): ReLU(inplace=True)\n        (conv1): Conv2d(736, 128, kernel_size=(1, 1), stride=(1, 1), bias=False)\n        (norm2): BatchNorm2d(128, eps=1e-05, momentum=0.1, affine=True, track_running_stats=True)\n        (relu2): ReLU(inplace=True)\n        (conv2): Conv2d(128, 32, kernel_size=(3, 3), stride=(1, 1), padding=(1, 1), bias=False)\n      )\n      (denselayer17): _DenseLayer(\n        (norm1): BatchNorm2d(768, eps=1e-05, momentum=0.1, affine=True, track_running_stats=True)\n        (relu1): ReLU(inplace=True)\n        (conv1): Conv2d(768, 128, kernel_size=(1, 1), stride=(1, 1), bias=False)\n        (norm2): BatchNorm2d(128, eps=1e-05, momentum=0.1, affine=True, track_running_stats=True)\n        (relu2): ReLU(inplace=True)\n        (conv2): Conv2d(128, 32, kernel_size=(3, 3), stride=(1, 1), padding=(1, 1), bias=False)\n      )\n      (denselayer18): _DenseLayer(\n        (norm1): BatchNorm2d(800, eps=1e-05, momentum=0.1, affine=True, track_running_stats=True)\n        (relu1): ReLU(inplace=True)\n        (conv1): Conv2d(800, 128, kernel_size=(1, 1), stride=(1, 1), bias=False)\n        (norm2): BatchNorm2d(128, eps=1e-05, momentum=0.1, affine=True, track_running_stats=True)\n        (relu2): ReLU(inplace=True)\n        (conv2): Conv2d(128, 32, kernel_size=(3, 3), stride=(1, 1), padding=(1, 1), bias=False)\n      )\n      (denselayer19): _DenseLayer(\n        (norm1): BatchNorm2d(832, eps=1e-05, momentum=0.1, affine=True, track_running_stats=True)\n        (relu1): ReLU(inplace=True)\n        (conv1): Conv2d(832, 128, kernel_size=(1, 1), stride=(1, 1), bias=False)\n        (norm2): BatchNorm2d(128, eps=1e-05, momentum=0.1, affine=True, track_running_stats=True)\n        (relu2): ReLU(inplace=True)\n        (conv2): Conv2d(128, 32, kernel_size=(3, 3), stride=(1, 1), padding=(1, 1), bias=False)\n      )\n      (denselayer20): _DenseLayer(\n        (norm1): BatchNorm2d(864, eps=1e-05, momentum=0.1, affine=True, track_running_stats=True)\n        (relu1): ReLU(inplace=True)\n        (conv1): Conv2d(864, 128, kernel_size=(1, 1), stride=(1, 1), bias=False)\n        (norm2): BatchNorm2d(128, eps=1e-05, momentum=0.1, affine=True, track_running_stats=True)\n        (relu2): ReLU(inplace=True)\n        (conv2): Conv2d(128, 32, kernel_size=(3, 3), stride=(1, 1), padding=(1, 1), bias=False)\n      )\n      (denselayer21): _DenseLayer(\n        (norm1): BatchNorm2d(896, eps=1e-05, momentum=0.1, affine=True, track_running_stats=True)\n        (relu1): ReLU(inplace=True)\n        (conv1): Conv2d(896, 128, kernel_size=(1, 1), stride=(1, 1), bias=False)\n        (norm2): BatchNorm2d(128, eps=1e-05, momentum=0.1, affine=True, track_running_stats=True)\n        (relu2): ReLU(inplace=True)\n        (conv2): Conv2d(128, 32, kernel_size=(3, 3), stride=(1, 1), padding=(1, 1), bias=False)\n      )\n      (denselayer22): _DenseLayer(\n        (norm1): BatchNorm2d(928, eps=1e-05, momentum=0.1, affine=True, track_running_stats=True)\n        (relu1): ReLU(inplace=True)\n        (conv1): Conv2d(928, 128, kernel_size=(1, 1), stride=(1, 1), bias=False)\n        (norm2): BatchNorm2d(128, eps=1e-05, momentum=0.1, affine=True, track_running_stats=True)\n        (relu2): ReLU(inplace=True)\n        (conv2): Conv2d(128, 32, kernel_size=(3, 3), stride=(1, 1), padding=(1, 1), bias=False)\n      )\n      (denselayer23): _DenseLayer(\n        (norm1): BatchNorm2d(960, eps=1e-05, momentum=0.1, affine=True, track_running_stats=True)\n        (relu1): ReLU(inplace=True)\n        (conv1): Conv2d(960, 128, kernel_size=(1, 1), stride=(1, 1), bias=False)\n        (norm2): BatchNorm2d(128, eps=1e-05, momentum=0.1, affine=True, track_running_stats=True)\n        (relu2): ReLU(inplace=True)\n        (conv2): Conv2d(128, 32, kernel_size=(3, 3), stride=(1, 1), padding=(1, 1), bias=False)\n      )\n      (denselayer24): _DenseLayer(\n        (norm1): BatchNorm2d(992, eps=1e-05, momentum=0.1, affine=True, track_running_stats=True)\n        (relu1): ReLU(inplace=True)\n        (conv1): Conv2d(992, 128, kernel_size=(1, 1), stride=(1, 1), bias=False)\n        (norm2): BatchNorm2d(128, eps=1e-05, momentum=0.1, affine=True, track_running_stats=True)\n        (relu2): ReLU(inplace=True)\n        (conv2): Conv2d(128, 32, kernel_size=(3, 3), stride=(1, 1), padding=(1, 1), bias=False)\n      )\n    )\n    (transition3): _Transition(\n      (norm): BatchNorm2d(1024, eps=1e-05, momentum=0.1, affine=True, track_running_stats=True)\n      (relu): ReLU(inplace=True)\n      (conv): Conv2d(1024, 512, kernel_size=(1, 1), stride=(1, 1), bias=False)\n      (pool): AvgPool2d(kernel_size=2, stride=2, padding=0)\n    )\n    (denseblock4): _DenseBlock(\n      (denselayer1): _DenseLayer(\n        (norm1): BatchNorm2d(512, eps=1e-05, momentum=0.1, affine=True, track_running_stats=True)\n        (relu1): ReLU(inplace=True)\n        (conv1): Conv2d(512, 128, kernel_size=(1, 1), stride=(1, 1), bias=False)\n        (norm2): BatchNorm2d(128, eps=1e-05, momentum=0.1, affine=True, track_running_stats=True)\n        (relu2): ReLU(inplace=True)\n        (conv2): Conv2d(128, 32, kernel_size=(3, 3), stride=(1, 1), padding=(1, 1), bias=False)\n      )\n      (denselayer2): _DenseLayer(\n        (norm1): BatchNorm2d(544, eps=1e-05, momentum=0.1, affine=True, track_running_stats=True)\n        (relu1): ReLU(inplace=True)\n        (conv1): Conv2d(544, 128, kernel_size=(1, 1), stride=(1, 1), bias=False)\n        (norm2): BatchNorm2d(128, eps=1e-05, momentum=0.1, affine=True, track_running_stats=True)\n        (relu2): ReLU(inplace=True)\n        (conv2): Conv2d(128, 32, kernel_size=(3, 3), stride=(1, 1), padding=(1, 1), bias=False)\n      )\n      (denselayer3): _DenseLayer(\n        (norm1): BatchNorm2d(576, eps=1e-05, momentum=0.1, affine=True, track_running_stats=True)\n        (relu1): ReLU(inplace=True)\n        (conv1): Conv2d(576, 128, kernel_size=(1, 1), stride=(1, 1), bias=False)\n        (norm2): BatchNorm2d(128, eps=1e-05, momentum=0.1, affine=True, track_running_stats=True)\n        (relu2): ReLU(inplace=True)\n        (conv2): Conv2d(128, 32, kernel_size=(3, 3), stride=(1, 1), padding=(1, 1), bias=False)\n      )\n      (denselayer4): _DenseLayer(\n        (norm1): BatchNorm2d(608, eps=1e-05, momentum=0.1, affine=True, track_running_stats=True)\n        (relu1): ReLU(inplace=True)\n        (conv1): Conv2d(608, 128, kernel_size=(1, 1), stride=(1, 1), bias=False)\n        (norm2): BatchNorm2d(128, eps=1e-05, momentum=0.1, affine=True, track_running_stats=True)\n        (relu2): ReLU(inplace=True)\n        (conv2): Conv2d(128, 32, kernel_size=(3, 3), stride=(1, 1), padding=(1, 1), bias=False)\n      )\n      (denselayer5): _DenseLayer(\n        (norm1): BatchNorm2d(640, eps=1e-05, momentum=0.1, affine=True, track_running_stats=True)\n        (relu1): ReLU(inplace=True)\n        (conv1): Conv2d(640, 128, kernel_size=(1, 1), stride=(1, 1), bias=False)\n        (norm2): BatchNorm2d(128, eps=1e-05, momentum=0.1, affine=True, track_running_stats=True)\n        (relu2): ReLU(inplace=True)\n        (conv2): Conv2d(128, 32, kernel_size=(3, 3), stride=(1, 1), padding=(1, 1), bias=False)\n      )\n      (denselayer6): _DenseLayer(\n        (norm1): BatchNorm2d(672, eps=1e-05, momentum=0.1, affine=True, track_running_stats=True)\n        (relu1): ReLU(inplace=True)\n        (conv1): Conv2d(672, 128, kernel_size=(1, 1), stride=(1, 1), bias=False)\n        (norm2): BatchNorm2d(128, eps=1e-05, momentum=0.1, affine=True, track_running_stats=True)\n        (relu2): ReLU(inplace=True)\n        (conv2): Conv2d(128, 32, kernel_size=(3, 3), stride=(1, 1), padding=(1, 1), bias=False)\n      )\n      (denselayer7): _DenseLayer(\n        (norm1): BatchNorm2d(704, eps=1e-05, momentum=0.1, affine=True, track_running_stats=True)\n        (relu1): ReLU(inplace=True)\n        (conv1): Conv2d(704, 128, kernel_size=(1, 1), stride=(1, 1), bias=False)\n        (norm2): BatchNorm2d(128, eps=1e-05, momentum=0.1, affine=True, track_running_stats=True)\n        (relu2): ReLU(inplace=True)\n        (conv2): Conv2d(128, 32, kernel_size=(3, 3), stride=(1, 1), padding=(1, 1), bias=False)\n      )\n      (denselayer8): _DenseLayer(\n        (norm1): BatchNorm2d(736, eps=1e-05, momentum=0.1, affine=True, track_running_stats=True)\n        (relu1): ReLU(inplace=True)\n        (conv1): Conv2d(736, 128, kernel_size=(1, 1), stride=(1, 1), bias=False)\n        (norm2): BatchNorm2d(128, eps=1e-05, momentum=0.1, affine=True, track_running_stats=True)\n        (relu2): ReLU(inplace=True)\n        (conv2): Conv2d(128, 32, kernel_size=(3, 3), stride=(1, 1), padding=(1, 1), bias=False)\n      )\n      (denselayer9): _DenseLayer(\n        (norm1): BatchNorm2d(768, eps=1e-05, momentum=0.1, affine=True, track_running_stats=True)\n        (relu1): ReLU(inplace=True)\n        (conv1): Conv2d(768, 128, kernel_size=(1, 1), stride=(1, 1), bias=False)\n        (norm2): BatchNorm2d(128, eps=1e-05, momentum=0.1, affine=True, track_running_stats=True)\n        (relu2): ReLU(inplace=True)\n        (conv2): Conv2d(128, 32, kernel_size=(3, 3), stride=(1, 1), padding=(1, 1), bias=False)\n      )\n      (denselayer10): _DenseLayer(\n        (norm1): BatchNorm2d(800, eps=1e-05, momentum=0.1, affine=True, track_running_stats=True)\n        (relu1): ReLU(inplace=True)\n        (conv1): Conv2d(800, 128, kernel_size=(1, 1), stride=(1, 1), bias=False)\n        (norm2): BatchNorm2d(128, eps=1e-05, momentum=0.1, affine=True, track_running_stats=True)\n        (relu2): ReLU(inplace=True)\n        (conv2): Conv2d(128, 32, kernel_size=(3, 3), stride=(1, 1), padding=(1, 1), bias=False)\n      )\n      (denselayer11): _DenseLayer(\n        (norm1): BatchNorm2d(832, eps=1e-05, momentum=0.1, affine=True, track_running_stats=True)\n        (relu1): ReLU(inplace=True)\n        (conv1): Conv2d(832, 128, kernel_size=(1, 1), stride=(1, 1), bias=False)\n        (norm2): BatchNorm2d(128, eps=1e-05, momentum=0.1, affine=True, track_running_stats=True)\n        (relu2): ReLU(inplace=True)\n        (conv2): Conv2d(128, 32, kernel_size=(3, 3), stride=(1, 1), padding=(1, 1), bias=False)\n      )\n      (denselayer12): _DenseLayer(\n        (norm1): BatchNorm2d(864, eps=1e-05, momentum=0.1, affine=True, track_running_stats=True)\n        (relu1): ReLU(inplace=True)\n        (conv1): Conv2d(864, 128, kernel_size=(1, 1), stride=(1, 1), bias=False)\n        (norm2): BatchNorm2d(128, eps=1e-05, momentum=0.1, affine=True, track_running_stats=True)\n        (relu2): ReLU(inplace=True)\n        (conv2): Conv2d(128, 32, kernel_size=(3, 3), stride=(1, 1), padding=(1, 1), bias=False)\n      )\n      (denselayer13): _DenseLayer(\n        (norm1): BatchNorm2d(896, eps=1e-05, momentum=0.1, affine=True, track_running_stats=True)\n        (relu1): ReLU(inplace=True)\n        (conv1): Conv2d(896, 128, kernel_size=(1, 1), stride=(1, 1), bias=False)\n        (norm2): BatchNorm2d(128, eps=1e-05, momentum=0.1, affine=True, track_running_stats=True)\n        (relu2): ReLU(inplace=True)\n        (conv2): Conv2d(128, 32, kernel_size=(3, 3), stride=(1, 1), padding=(1, 1), bias=False)\n      )\n      (denselayer14): _DenseLayer(\n        (norm1): BatchNorm2d(928, eps=1e-05, momentum=0.1, affine=True, track_running_stats=True)\n        (relu1): ReLU(inplace=True)\n        (conv1): Conv2d(928, 128, kernel_size=(1, 1), stride=(1, 1), bias=False)\n        (norm2): BatchNorm2d(128, eps=1e-05, momentum=0.1, affine=True, track_running_stats=True)\n        (relu2): ReLU(inplace=True)\n        (conv2): Conv2d(128, 32, kernel_size=(3, 3), stride=(1, 1), padding=(1, 1), bias=False)\n      )\n      (denselayer15): _DenseLayer(\n        (norm1): BatchNorm2d(960, eps=1e-05, momentum=0.1, affine=True, track_running_stats=True)\n        (relu1): ReLU(inplace=True)\n        (conv1): Conv2d(960, 128, kernel_size=(1, 1), stride=(1, 1), bias=False)\n        (norm2): BatchNorm2d(128, eps=1e-05, momentum=0.1, affine=True, track_running_stats=True)\n        (relu2): ReLU(inplace=True)\n        (conv2): Conv2d(128, 32, kernel_size=(3, 3), stride=(1, 1), padding=(1, 1), bias=False)\n      )\n      (denselayer16): _DenseLayer(\n        (norm1): BatchNorm2d(992, eps=1e-05, momentum=0.1, affine=True, track_running_stats=True)\n        (relu1): ReLU(inplace=True)\n        (conv1): Conv2d(992, 128, kernel_size=(1, 1), stride=(1, 1), bias=False)\n        (norm2): BatchNorm2d(128, eps=1e-05, momentum=0.1, affine=True, track_running_stats=True)\n        (relu2): ReLU(inplace=True)\n        (conv2): Conv2d(128, 32, kernel_size=(3, 3), stride=(1, 1), padding=(1, 1), bias=False)\n      )\n    )\n    (norm5): BatchNorm2d(1024, eps=1e-05, momentum=0.1, affine=True, track_running_stats=True)\n  )\n  (classifier): Linear(in_features=1024, out_features=7, bias=True)\n)"
}{
    "exp_name": "SimpleBNConv_SimpleBNConv  20231027_004533",
    "model_architect": "SimpleBNConv(\n  (features): Sequential(\n    (0): Conv2d(3, 8, kernel_size=(3, 3), stride=(1, 1), padding=(1, 1))\n    (1): BatchNorm2d(8, eps=1e-05, momentum=0.1, affine=True, track_running_stats=True)\n    (2): ReLU()\n    (3): MaxPool2d(kernel_size=2, stride=2, padding=0, dilation=1, ceil_mode=False)\n    (4): Conv2d(8, 16, kernel_size=(3, 3), stride=(1, 1), padding=(1, 1))\n    (5): BatchNorm2d(16, eps=1e-05, momentum=0.1, affine=True, track_running_stats=True)\n    (6): ReLU()\n    (7): MaxPool2d(kernel_size=2, stride=2, padding=0, dilation=1, ceil_mode=False)\n    (8): Conv2d(16, 32, kernel_size=(3, 3), stride=(1, 1), padding=(1, 1))\n    (9): BatchNorm2d(32, eps=1e-05, momentum=0.1, affine=True, track_running_stats=True)\n    (10): ReLU()\n    (11): MaxPool2d(kernel_size=2, stride=2, padding=0, dilation=1, ceil_mode=False)\n    (12): Conv2d(32, 64, kernel_size=(3, 3), stride=(1, 1), padding=(1, 1))\n    (13): BatchNorm2d(64, eps=1e-05, momentum=0.1, affine=True, track_running_stats=True)\n    (14): ReLU()\n    (15): MaxPool2d(kernel_size=2, stride=2, padding=0, dilation=1, ceil_mode=False)\n    (16): Conv2d(64, 128, kernel_size=(3, 3), stride=(1, 1), padding=(1, 1))\n    (17): BatchNorm2d(128, eps=1e-05, momentum=0.1, affine=True, track_running_stats=True)\n    (18): ReLU()\n    (19): MaxPool2d(kernel_size=2, stride=2, padding=0, dilation=1, ceil_mode=False)\n  )\n  (seq): Sequential(\n    (0): Flatten(start_dim=1, end_dim=-1)\n    (1): Linear(in_features=32256, out_features=64, bias=True)\n    (2): ReLU()\n    (3): Linear(in_features=64, out_features=32, bias=True)\n    (4): ReLU()\n    (5): Linear(in_features=32, out_features=7, bias=True)\n  )\n)"
}